flappy_bird_dqn-main/my_model.ckpt (torch, 610767 bytes, 7 tensors)

0.weight f4 [200, 5]
-0.42766696 -0.1520398 0.02563638 0.21542853 -0.3295281 -0.25911787 0.11703205 -0.27394757
0.21825826 -0.124868155 0.57306975 0.460299 -0.29191563 -0.082297914 0.12174257 0.017957905
-0.17471078 -0.26416168 0.068388164 0.4429379 -0.076814234 -0.116212256 -0.34481844 -0.3650634
0.32366168 -0.602852 0.40378895 0.23288618 0.357984 0.2676312 -0.20794007 0.43804857
-0.31171703 0.26384988 0.16064201 0.72967744 0.24252966 0.40607142 0.34383845 -0.30056843
-0.25919378 0.23618811 -0.29800898 -0.14486131 -0.20589761 -0.0040003364 0.2575609 0.3128967
-0.38986072 -0.51474226 -0.3742401 -0.04725561 -0.09959816 -0.4062527 0.35401696 -0.42526674
0.15902537 -0.26090196 -0.049291015 -0.31281677 -0.692892 -0.38224325 -0.2368108 -0.15671682
-0.2529438 -0.45387816 -0.23677714 -0.3911802 0.31463602 0.090409175 0.59644365 0.015775781
0.13342337 0.23547697 0.31415293 0.17634809 0.3020568 0.36451668 0.11782065 0.33919266
0.104551055 0.44388285 -0.3625752 -0.37633306 0.24529347 -0.44476917 0.20394528 -0.10935825
0.37658584 -0.024531841 -0.71763086 -0.14965117 0.080579974 -0.30925572 0.2313833 0.30380157
0.3884256 0.32047084 0.26957223 -0.075862646 -0.634766 -0.06633655 0.32442266 -0.26791215
-0.058105793 -0.47579387 -0.10684981 0.3727939 0.09461264 -0.2831079 0.30184567 0.42186797
-0.37126076 0.27926657 0.41717455 -0.06050156 0.24773824 -0.21024029 0.048617575 0.031559315
-0.72284657 -0.3635915 -0.41559088 -0.050424155 0.4214797 0.8946781 0.16218005 0.27882728
0.15996492 0.34677178 0.10588036 -0.054980155 -0.3975323 0.35552034 0.18373963 -0.7637104
-0.2595275 0.41823575 0.05383955 -0.17330638 -0.29837373 0.0726224 -0.13341431 -0.109169684
0.13971786 -0.58769494 -0.0746687 0.28880414 -0.40279853 -0.33527672 0.20792621 -0.22220059
0.14364237 -0.27631503 -0.3952378 -0.22958669 -0.16064024 -0.16937253 -0.2741621 -0.06777227
0.17557721 0.20761582 -0.33943328 -0.44677642 0.37291372 0.4491837 -0.20084675 -0.34049046
-0.51374614 -0.02617238 -0.41435888 0.1558004 -0.1508939 -0.3519552 -0.3750407 -0.69512606
0.32736644 0.4256112 -0.42725143 0.43169692 0.52535766 0.043653797 0.20881356 0.009375335
0.101116486 -0.4169839 0.24010713 -0.08575658 0.08775107 0.35424444 0.4831031 0.015921017
-0.31213635 -0.29727808 0.27441603 -0.71684337 -0.33984244 -0.16387278 0.2665819 -0.23643972
-0.433456 0.06740183 0.017711848 0.19817477 -0.16207817 -0.083945476 0.2095444 -0.23164092
-0.41207713 0.11228043 -0.8676228 -0.0786313 -0.2517632 -0.123969965 -0.057985663 -0.18560816
0.38370743 -0.19156145 -0.019644659 0.10597081 0.42819393 0.1402688 0.14400193 0.16115074
-0.34584746 0.04740557 0.023796082 -0.36012238 0.38111943 0.13439506 0.015560925 0.18261617
0.1588217 -0.06631157 -0.39083034 -0.40985674 0.3007244 0.31837982 -0.076977134 -0.29574543
-0.57719785 -0.05782504 -0.35254174 0.4140543 0.36449137 -0.37752706 -0.3416341 0.015601963
-0.011443526 -0.3555498 0.3556137 -0.08062765 -0.22565019 -0.24731599 -0.278597 -0.2153638
00000000: 2af7 dabe 52b0 1bbe 6303 d23c 4c99 5c3e
00000010: e8b7 a8be 19ab 84be 80ae ef3d db42 8cbe
00000020: 187f 5f3e e0ba ffbd b3b4 123f 4fac eb3e
00000030: f775 95be cf8b a8bd 2b54 f93d 751c 933c
00000040: 62e7 32be 3340 87be 180f 8c3d c2c8 e23e
00000050: c850 9dbd b100 eebd 0b8c b0be 97e9 babe
00000060: fcb6 a53e 8254 1abf 6dbd ce3e b779 6e3e
00000070: ae49 b73e f506 893e 3eee 54be e747 e03e
00000080: 6099 9fbe 5517 873e 577f 243e 24cc 3a3f
00000090: b259 783e 98e8 cf3e 980b b03e 1be4 99be
000000a0: 0cb5 84be 4cdb 713e a294 98be 8656 14be
000000b0: d3d6 52be 4115 83bb 06df 833e ff33 a03e
000000c0: d39b c7be 26c6 03bf 669c bfbe 198f 41bd
000000d0: 1ffa cbbd 5b00 d0be b641 b53e 90bc d9be
000000e0: 8cd7 223e f194 85be 60e5 49bd 8529 a0be
000000f0: 5f61 31bf 63b5 c3be 887e 72be 607a 20be
00000100: da81 81be b862 e8be b575 72be c548 c8be
00000110: f917 a13e 7228 b93d 88b0 183f 363c 813c
00000120: 23a0 083e e020 713e a7d8 a03e 9894 343e
00000130: 30a7 9a3e eea1 ba3e f44b f13d a9aa ad3e
00000140: dd1e d63d 9d44 e33e 75a3 b9be baae c0be
00000150: 362e 7b3e c9b8 e3be 08d7 503e 38f7 dfbd
00000160: dccf c03e 00f7 c8bc a8b6 37bf 283e 19be
00000170: 1d07 a53d c456 9ebe beef 6c3e e18b 9b3e
00000180: b8df c63e c114 a43e 5f05 8a3e e05d 9bbd
00000190: 0680 22bf 75db 87bd ba1a a63e c82b 89be
000001a0: 5700 6ebd 419b f3be 13d4 dabd d8de be3e
000001b0: 46c4 c13d 85f3 90be 848b 9a3e 14ff d73e
000001c0: e415 bebe 07fc 8e3e e797 d53e 7cd0 77bd
000001d0: 18af 7d3e 3b49 57be 3923 473d 5744 013d
000001e0: 790c 39bf aa28 babe 54c8 d4be 8f89 4ebd
000001f0: 30cc d73e a009 653f 8712 263e 73c2 8e3e
00000200: d8cd 233e 128c b13e cdd7 d83d df32 61bd
00000210: 5b89 cbbe c306 b63e 3e26 3c3e 8682 43bf
00000220: cae0 84be ff22 d63e dc86 5c3d 3a77 31be
00000230: 71c4 98be 0ebb 943d c39d 08be 5b94 dfbd
00000240: 3312 0f3e 2d73 16bf e7eb 98bd 23de 933e
00000250: 9c3b cebe 64a9 abbe 9cea 543e 8d88 63be
00000260: fc16 133e 2a79 8dbe 9c5c cabe c618 6bbe
00000270: e07e 24be fe6f 2dbe fa5e 8cbe 30cc 8abd
00000280: 83ca 333e 3e99 543e 33ca adbe e1bf e4be
00000290: 8cee be3e 68fb e53e c5aa 4dbe c454 aebe
000002a0: de84 03bf 7667 d6bc d926 d4be 248a 1f3e
000002b0: ee83 1abe 7933 b4be 5605 c0be c8f3 31bf
000002c0: 939c a73e b6e9 d93e b3c0 dabe 6107 dd3e
000002d0: d77d 063f 53ce 323d 39d3 553e 019b 193c
000002e0: 2916 cf3d ea7e d5be a5de 753e 25a1 afbd
000002f0: d5b6 b33d 875f b53e 4a59 f73e cb6c 823c
00000300: 56d0 9fbe d534 98be 4280 8c3e 0c83 37bf
00000310: d4ff adbe 44ce 27be 6c7d 883e 411d 72be
00000320: f2ed ddbe f809 8a3d 7018 913c 54ee 4a3e
00000330: d2f7 25be 9beb abbd cf92 563e 4733 6dbe
00000340: c6fb d2be 48f3 e53d 871c 5ebf 7209 a1bd
00000350: 1be7 80be f7e3 fdbd 6082 6dbd 1110 3ebe
00000360: 4d75 c43e af28 44be d6ed a0bc 3907 d93d
00000370: 3c3c db3e a0a2 0f3e 3e75 133e b304 253e
00000380: eb12 b1be 582c 423d 00f0 c23c f661 b8be
00000390: 1622 c33e dc9e 093e 40f3 7e3c bcff 3a3e
000003a0: 28a2 223e 5cce 87bd ea1a c8be bed8 d1be
000003b0: 8cf8 993e ae02 a33e 30a6 9dbd f26b 97be
000003c0: 3dc3 13bf f3d9 6cbd 5a80 b4be edfe d33e
000003d0: 9d9e ba3e 3a4b c1be aaea aebe 609f 7f3c
000003e0: a07d 3bbc a00a b6be 0013 b63e 1c20 a5bd
000003f0: d810 67be 6740 7dbe 44a4 8ebe 5488 5cbe

0.bias f4 [200]
-0.029141424 -0.41053605 0.40761748 -0.44181818 -0.26860124 0.2576855 0.098656625 -0.24009712
-0.19110405 0.30971465 0.24706943 -0.16101485 0.30271015 0.22864437 -0.3246844 -0.34450006
-0.1344501 -0.33324438 0.060633577 -0.12499557 -0.114819854 -0.24055508 0.13378718 0.037466154
0.40237632 -0.24636045 -0.14166826 -0.34413946 0.15338576 0.16950995 -0.3537034 -0.31116498
-0.23947337 0.1406511 -0.1668418 -0.12950179 -0.2315365 0.18827704 -0.18629633 0.40063393
-0.22529614 0.028878126 0.41076055 0.3287488 0.16560605 -0.38336146 -0.30211544 0.022960927
0.0112809045 -0.33806577 -0.2892357 -0.13337642 -0.1773191 0.27039963 -0.2598239 -0.036813725
0.017870825 0.15281293 0.14042766 -0.1320808 -0.0018051268 -0.012327253 0.18379863 -0.37591603
0.25001723 0.059115417 -0.3036366 -0.24155378 -0.39103884 -0.41809216 0.12833332 0.14538746
0.2020037 0.37651634 0.114486225 0.0059635667 -0.46315253 0.0034008278 0.21181777 -0.11095353
-0.07708952 0.25073326 -0.26123464 -0.23745741 -0.13905218 -0.34214196 0.3765806 -0.367074
-0.08329496 -0.09072964 -0.021942368 0.06761705 0.20984101 0.13233832 -0.26622558 0.25224787
0.034590952 0.15469855 -0.17239708 -0.28817108 -0.06154591 0.3181572 0.026537446 0.2330167
0.26693067 -0.3556849 -0.04865964 -0.20714521 0.018096173 0.11400367 -0.12864806 0.15796389
-0.271235 -0.40997028 0.278098 -0.0773805 0.17249206 0.17275731 0.21990643 0.19833939
-0.23377235 -0.25989628 0.028497398 0.14827055 0.2600529 -0.2348504 -0.039451227 0.08923471
0.0661484 0.035697676 -0.12569027 0.4134536 0.08199072 0.03128007 -0.15630676 -0.20744047
0.025077773 -0.37454277 -0.41663685 -0.25000185 0.16554485 -0.16841187 -0.29850546 -0.28988117
-0.21371028 -0.25856993 -0.08348292 -0.35781974 0.06635075 -0.033559937 -0.14746332 -0.43918315
-0.35831064 0.09188397 -0.1965623 -0.280823 0.0791791 -0.063577585 -0.35195622 -0.13133034
0.16938071 -0.3792077 -0.3742865 0.2103526 -0.085135795 -0.1114958 -0.011311531 -0.40160388
0.18827806 0.1216973 0.30264652 0.10095772 0.14239591 -0.43063852 0.3808238 0.112114
-0.17104332 -0.12375936 0.16410592 -0.37593782 -0.41340438 -0.08020427 -0.09476953 0.136828
0.276835 0.31055695 0.2810365 0.051861353 0.18805166 -0.38141418 -0.21135451 -0.1265871
-0.10798947 -0.30313793 -0.15702447 0.04174966 -0.022161616 -0.32657737 0.2048116 0.30490157
00000000: ffb9 eebc c831 d2be 3db3 d03e fe35 e2be
00000010: 1a86 89be 5bef 833e 7c0c ca3d 05dc 75be
00000020: c8b0 43be eb92 9e3e c5ff 7c3e 14e1 24be
00000030: d3fc 9a3e c021 6a3e 093d a6be 5062 b0be
00000040: 49ad 09be 029f aabe ea5a 783d adfd ffbd
00000050: ac26 ebbd 1254 76be 82ff 083e 1c76 193d
00000060: 4504 ce3e ea45 7cbe 7c11 11be 0c33 b0be
00000070: 2811 1d3e 0494 2d3e 9d18 b5be 0451 9fbe
00000080: 8238 75be d806 103e 94d8 2abe 1e9c 04be
00000090: e717 6dbe b2cb 403e 77c4 3ebe e41f cd3e
000000a0: 08b4 66be d291 ec3c 354f d23e c351 a83e
000000b0: a294 293e f447 c4be e0ae 9abe 8e18 bc3c
000000c0: 8bd3 383c f516 adbe b416 94be d493 08be
000000d0: 2393 35be d271 8a3e a307 85be fdc9 16bd
000000e0: d665 923c fe7a 1c3e 45cc 0f3e 3040 07be
000000f0: 019a ecba 3ff8 49bc b535 3c3e 1178 c0be
00000100: 4202 803e 0223 723d 4276 9bbe e059 77be
00000110: 3e36 c8be 2d10 d6be cf69 033e 73e0 143e
00000120: 0fda 4e3e c0c6 c03e c177 ea3d 066a c33b
00000130: 5422 edbe 6ce0 5e3b c2e6 583e 9b3b e3bd
00000140: 1ce1 9dbd 1c60 803e 8cc0 85be 0928 73be
00000150: b263 0ebe 3b2d afbe 2ccf c03e 20f1 bbbe
00000160: 8c96 aabd 76d0 b9bd 7bc0 b3bc cf7a 8a3d
00000170: 90e0 563e b283 073e b84e 88be a226 813e
00000180: 3eaf 0d3d 4c69 1e3e dc88 30be 298b 93be
00000190: 9017 7cbd 80e5 a23e 0f65 d93c ee9b 6e3e
000001a0: 23ab 883e 551c b6be 554f 47bd e01d 54be
000001b0: 6d3e 943c c27a e93d 51bc 03be 49c1 213e
000001c0: 50df 8abe a0e7 d1be dc62 8e3e ab79 9ebd
000001d0: c2a1 303e 4be7 303e 272f 613e 7b19 4b3e
000001e0: 0562 6fbe 2011 85be 6073 e93c 3cd4 173e
000001f0: a725 853e a07c 70be 9c97 21bd b0c0 b63d
00000200: d078 873d ba37 123d f3b4 00be 31b0 d33e
00000210: c0ea a73d 881f 003d e10e 20be 466b 54be
00000220: e76f cd3c 12c4 bfbe 6d51 d5be 3e00 80be
00000230: 9784 293e 2974 2cbe b5d5 98be 4e6b 94be
00000240: ded6 5abe 4763 84be 18f9 aabd 2634 b7be
00000250: e7e2 873d 2576 09bd a000 17be 9ddc e0be
00000260: 7e74 b7be aa2d bc3d a147 49be 08c8 8fbe
00000270: a728 a23d f734 82bd 9b33 b4be 767b 06be
00000280: 2372 2d3e 8327 c2be 7ba2 bfbe ac66 573e
00000290: ad5b aebd e957 e4bd 0054 39bc 069f cdbe
000002a0: f7cb 403e 6f3c f93d 7cf4 9a3e ecc2 ce3d
000002b0: 3cd0 113e a77c dcbe 56fb c23e 069c e53d
000002c0: fb25 2fbe 8c75 fdbd 620b 283e ec7a c0be
000002d0: bda9 d3be 2342 a4bd 8716 c2bd a41c 0c3e
000002e0: 51bd 8d3e 5201 9f3e 04e4 8f3e 926c 543d
000002f0: 9d90 403e b848 c3be 516d 58be 0ca0 01be
00000300: 9529 ddbd e534 9bbe 06cb 20be b101 2b3d
00000310: 478c b5bc 2635 a7be 22ba 513e 0f1c 9c3e

2.weight f4 [500, 200]
0.061132636 0.009255983 -0.1132684 -0.024424566 0.038907766 -0.018065955 -0.0666677 -0.18111451
0.0033433884 0.04013883 0.08482842 0.03635469 0.120285675 0.037206113 0.029869458 0.042748705
-0.015687289 0.03252683 -0.008562198 -0.07116315 0.024417358 0.07017862 -0.04661598 -0.013468865
0.020953564 -0.12039024 0.054956123 0.0781314 0.047728408 0.01642719 0.055686153 -0.05697691
-0.117882565 0.006754346 -0.044750094 0.10299122 -0.080878295 -0.026038812 -0.07218873 0.033721577
-0.043635435 0.05408321 0.16526914 -0.0096337 -0.096770406 -0.035802275 0.0423792 -0.06721724
0.10955404 -0.007501021 -0.041248403 0.014742099 -0.019883165 0.021888599 0.06957776 0.01851368
-0.29687297 -0.025542608 0.010525035 -0.002041383 0.12706174 -0.061106127 -0.04078475 -0.045595046
0.047783665 0.1364738 -0.34374708 0.04662433 0.067036636 0.043330513 0.07046778 -0.026687432
-0.24118072 -0.07591487 -0.0007971643 -0.0008732063 0.041678697 -0.100280754 0.004478029 -0.13470781
0.059333943 -0.07017222 0.070260935 0.06578859 -0.04455313 0.02703008 -0.02308707 -0.17786159
-0.02147898 -0.041440677 -0.23085709 -0.06276272 0.0058033876 0.11150222 -0.0009877607 0.010183086
0.13297552 0.06992556 -0.009221535 0.017736867 -0.0007329434 0.05785455 -0.13527256 -0.06588028
0.12855859 -0.04708111 -0.22332226 0.00653858 -0.124184504 -0.05519427 0.06926539 0.078223646
-0.096637025 -0.01655509 -0.012291288 0.0823902 -0.08185372 -0.024074472 0.05279366 0.0033898705
0.06283331 0.028813712 0.08031402 0.010263545 -0.03271879 0.008597918 -0.03353554 0.11461609
0.023882836 0.055373363 -0.11648415 0.046450403 0.018819746 -0.03195184 0.061134137 0.06928136
0.0019030503 -0.036382332 0.014315434 0.028409034 0.07039002 -0.030526042 -0.008289941 -0.020691026
-0.043862652 -0.02902106 0.019369885 -0.021643218 -0.00030213225 0.074513584 0.050646417 -0.06010829
-0.15463029 -0.13430348 -0.066003576 0.09852201 -0.09047609 0.026041381 -0.028208204 0.0014176075
0.06924902 0.15882829 -0.028039768 -0.02027394 -0.19008988 0.08065722 0.04035668 0.0137376115
-0.043654043 -0.12566732 -0.0006721964 -0.08905218 -0.1388078 -0.044974126 0.011323493 -0.02109737
0.028289177 -0.03393078 -0.102525555 -0.02485738 0.018264359 0.03622783 -0.13829522 0.0073850034
-0.056437574 -0.014215292 -0.023945421 0.0065351124 -0.012117477 -0.07057199 -0.041482605 -0.21111509
-0.041048072 0.13043733 -0.06365855 -0.23193058 -0.10570722 0.0522212 0.028971525 -0.22891591
0.032483604 -0.013845947 -0.039114974 0.025987376 -0.011272243 -0.072163455 0.07200142 -0.2279027
0.037931718 -0.05232043 -0.02914715 0.021013074 0.045774087 0.000387815 -0.088006355 -0.070433855
0.099946156 -0.03372907 -0.030037781 -0.09349237 0.10005904 0.013114679 -0.100530215 -0.012604282
0.028899424 -0.04057199 0.065968804 0.025997771 0.06936635 0.036279537 0.060351975 0.07000374
0.045969922 -0.068893686 -0.024820685 0.056675598 -0.15103208 0.03531236 -0.037874334 0.012642428
0.027034715 -0.052033905 0.10477519 -0.011082019 -0.035719045 0.06022092 -0.052343547 -0.096515395
0.04841069 -0.060099974 -0.030838203 0.03147853 -0.09882574 -0.023123702 -0.043717597 -0.04446131
00000000: 3766 7a3d 68a6 173c 43f9 e7bd 0716 c8bc
00000010: c05d 1f3d 0eff 93bc 1389 88bd 1576 39be
00000020: c01c 5b3b 9d68 243d 86ba ad3d a8e8 143d
00000030: 5658 f63d 7065 183d cbb0 f43c 4419 2f3d
00000040: a182 80bc da3a 053d 7648 0cbc fcbd 91bd
00000050: e906 c83c cfb9 8f3d 66f0 3ebd 84ac 5cbc
00000060: cfa6 ab3c 288f f6bd ac19 613d 5b03 a03d
00000070: dd7e 433d 5092 863c 2a17 643d 9f60 69bd
00000080: 6a6c f1bd 9053 dd3b e04b 37bd 10ed d23d
00000090: 85a3 a5bd 594f d5bc afd7 93bd a31f 0a3d
000000a0: 12bb 32bd 5b86 5d3d 503c 293e abd6 1dbc
000000b0: 902f c6bd 68a5 12bd d095 2d3d 31a9 89bd
000000c0: de5d e03d 20cb f5bb 16f4 28bd d888 713c
000000d0: 05e2 a2bc b84f b33c c97e 8e3d 00aa 973c
000000e0: bcff 97be bb3e d1bc 3271 2c3c b9c8 05bb
000000f0: 791c 023e 6b4a 7abd e90d 27bd dfc1 3abd
00000100: ceb8 433d cabf 0b3e 9eff afbe 27f9 3e3d
00000110: 814a 893d 567b 313d 6951 903d 9a9f dabc
00000120: 14f8 76be 4179 9bbd caf8 50ba e2e7 64ba
00000130: 48b7 2a3d ff5f cdbd 6ebc 923b d8f0 09be
00000140: 2608 733d 74b6 8fbd f7e4 8f3d 2bbc 863d
00000150: 587d 36bd 306e dd3c 1821 bdbc 5921 36be
00000160: b0f4 afbc b3bd 29bd cd65 6cbe be89 80bd
00000170: 582a be3b 475b e43d c077 81ba f5d6 263c
00000180: bc2a 083e 2235 8f3d ec15 17bc e84c 913c
00000190: 0023 40ba e5f8 6c3d e484 0abe 3eec 86bd
000001a0: dda4 033e 1fd8 40bd 97ae 64be 9641 d63b
000001b0: 7254 febd 6313 62bd 03db 8d3d b833 a03d
000001c0: a2e9 c5bd 8a9e 87bc 6661 49bc 31bc a83d
000001d0: eca2 a7bd d437 c5bc 2a3e 583d 9728 5e3b
000001e0: c0ae 803d bc0a ec3c ad7b a43d 6e28 283c
000001f0: 2304 06bd 48de 0c3c 905c 09bd d7bb ea3d
00000200: f0a5 c33c 2ecf 623d 3e8f eebd c742 3e3d
00000210: de2b 9a3c efdf 02bd ca67 7a3d 63e3 8d3d
00000220: c66f f93a a405 15bd 488b 6a3c 10ba e83c
00000230: a528 903d c011 fabc 88d2 07bc 3a80 a9bc
00000240: 53a9 33bd 93bd edbc 98ad 9e3c 1e4d b1bc
00000250: 8167 9eb9 949a 983d 9e72 4f3d 1c34 76bd
00000260: 6757 1ebe da86 09be e22c 87bd e8c5 c93d
00000270: 874b b9bd bc54 d53c e414 e7bc 04cf b93a
00000280: 6ed2 8d3d e2a3 223e a8b3 e5bc 8915 a6bc
00000290: eca6 42be 9d2f a53d 0c4d 253d b813 613c
000002a0: 95ce 32bd efae 00be 5636 30ba fd60 b6bd
000002b0: a223 0ebe ca36 38bd 2c86 393c 64d4 acbc
000002c0: b4be e73c 00fb 0abd ebf8 d1bd b4a1 cbbc
000002d0: 239f 953c a263 143d 439d 0dbe e6fd f13b
000002e0: 162b 67bd 42e7 68bc 3029 c4bc 7f24 d63b
000002f0: 6288 46bc 0c88 90bd aae9 29bd 8e2e 58be
00000300: 0622 28bd 5d91 053e 6a5f 82bd 367f 6dbe
00000310: 077d d8bd e6e5 553d b155 ed3c ef68 6abe
00000320: 870d 053d 1cda 62bc 0637 20bd 7ae3 d43c
00000330: 37af 38bc 6fca 93bd 7b75 933d 535f 69be
00000340: 4a5e 1b3d f24d 56bd 01c6 eebc 9c23 ac3c
00000350: 9c7d 3b3d a653 cb39 ad3c b4bd a03f 90bd
00000360: 92b0 cc3d 7e27 0abd cb11 f6bc ed78 bfbd
00000370: c1eb cc3d f3de 563c c9e2 cdbd 3182 4ebc
00000380: 7cbe ec3c d12e 26bd a71a 873d 47f9 d43c
00000390: f20f 8e3d da99 143d a233 773d 1f5e 8f3d
000003a0: f54a 3c3d 2218 8dbd c054 cbbc ac24 683d
000003b0: 27a8 1abe b1a3 103d 1e22 1bbd 3022 4f3c
000003c0: e877 dd3c 8121 55bd 6094 d63d 5b91 35bc
000003d0: 224e 12bd 36aa 763d 3066 56bd dda9 c5bd
000003e0: 4a4a 463d 642b 76bd 66a0 fcbc a2ef 003d
000003f0: 2665 cabd eb6d bdbc 3911 33bd 101d 36bd

2.bias f4 [500]
0.054445524 -0.015619829 -0.031165542 0.048243083 -0.050064195 -0.04021842 -0.043614272 -0.018546361
0.037470497 -0.04023604 0.034049626 -0.02885368 0.033660542 0.030603383 -0.02148194 -0.0017441474
0.08256389 0.031163113 0.0017770978 0.006057095 -0.06253477 0.014112186 -0.06360179 0.048453353
-0.045982607 0.0123232845 0.008597292 -0.06621107 -0.06956645 -0.053210214 0.061605316 0.05435411
0.0006987393 -0.058094285 -0.058156837 0.05382655 0.012734562 0.040972732 -0.054060373 0.05547386
0.023851773 0.0067696124 -0.044908144 -0.026445847 0.033556987 -0.042821106 -0.062149677 0.03031925
0.058946338 -0.060547728 -0.043140426 -0.005701645 0.01401222 -0.01885887 0.029891456 0.054127514
-0.009348132 0.111475304 -0.066151395 -0.014378091 -0.07718097 -0.025743037 0.035243016 0.0067611584
-0.051264465 0.074652895 0.031050332 0.014698568 -0.032682505 -0.054911867 0.019203914 -0.028909786
-0.014618609 0.019823726 0.041648496 0.040108804 -0.04602448 -0.07036454 0.05765947 -0.03829973
-0.057713218 -0.010683351 -0.019490812 -0.034613375 -0.029176777 0.05730441 -0.09084682 -0.034353655
0.064359955 -0.031374045 -0.05238099 0.046587445 -0.061262 -0.084905624 -0.03266879 -0.0033488143
0.03573989 0.033780374 0.057618678 -0.097544916 0.055996682 -0.03917054 -0.008843055 -0.0266962
-0.057334334 0.031681836 -0.02916706 -0.059212606 -0.043146975 -0.055510823 -0.05132833 -0.039546594
-0.033136282 0.01815105 0.013557176 0.033342224 0.065259255 -0.0176429 0.027414372 -0.02057584
-0.0076489933 -0.03334132 -0.016117526 -0.0067201946 -0.056585968 -0.009497714 0.058085512 0.020689938
0.038876392 -0.07809411 0.018620193 -0.03929087 0.018869098 -0.056634326 -0.017488524 0.02245231
0.041709904 -0.056828234 -0.07608835 0.02428598 -0.020773591 0.02957121 -0.049519494 -0.029020293
0.01797958 -0.047828738 0.018421415 -0.030660516 -0.006816953 -0.053106666 0.006363102 0.031986367
0.0028861745 -0.038100414 0.028712422 -0.054063622 0.04401785 -0.038511727 0.046712443 -0.06334367
-0.0069464003 -0.037492413 0.018465064 -0.10221116 -0.059485435 -0.014801694 0.04623504 0.06462211
0.0645217 -0.08318446 -0.057656728 0.023866568 0.06159018 -0.040021926 -0.06705701 -0.009908859
0.03559937 0.03503834 0.036366966 -0.02466356 -0.0079550715 -0.022445401 0.01332231 -0.055988718
0.016125824 0.024046099 -0.026776923 -0.011381619 -0.0035897586 -0.049509834 0.024471128 -0.05245795
0.018924374 0.041786354 -0.05253646 0.031909503 -0.027904345 0.025119398 0.001049718 -0.045075063
0.054043803 -0.08741002 0.02155359 -0.071508616 -0.051679473 0.013163823 -0.044332646 0.042492963
-0.06565748 -0.021535933 0.0028736643 0.00670547 0.036871605 0.047178067 0.02380379 -0.053479373
-0.14279082 0.024138745 -0.029309684 -0.005800029 -0.034358356 0.059993487 -0.07271148 -0.004669562
-0.013906289 -0.026369961 -0.07444863 0.018274862 0.016123023 0.12975682 -0.05865804 0.052840985
-0.037202712 0.072573684 -0.028733874 0.0324585 0.012689398 0.044334125 -0.031830247 0.016753362
-0.024928123 -0.042566743 -0.04299723 -0.027936703 -0.06360552 -0.059466403 -0.05720435 0.025753466
-0.05559386 0.03609872 0.05757586 -0.06423447 0.028925078 0.015503064 0.0121909 0.02513041
00000000: 4502 5f3d 50ea 7fbc e14e ffbc 8a9a 453d
00000010: 1d10 4dbd 12bc 24bd e1a4 32bd 8aee 97bc
00000020: aa7a 193d 8cce 24bd 9f77 0b3d 8d5e ecbc
00000030: a3df 093d f2b3 fa3c e5fa afbc e09b e4ba
00000040: 4217 a93d c949 ff3c 82ed e83a 987a c63b
00000050: 3b12 80bd cc36 673c a841 82bd 0677 463d
00000060: 4258 3cbd 9ae7 493c a8db 0c3c ab99 87bd
00000070: db78 8ebd f4f2 59bd db55 7c3d 6aa2 5e3d
00000080: 9a2b 373a 46f4 6dbd dd35 6ebd 3a79 5c3d
00000090: a0a4 503c 06d3 273d 696e 5dbd 8f38 633d
000000a0: cb64 c33c a0d3 dd3b 9af1 37bd f6a4 d8bc
000000b0: 0d73 093d 2f65 2fbd a990 7ebd 1360 f83c
000000c0: b771 713d e500 78bd 04b4 30bd ddd4 babb
000000d0: 8393 653c eb7d 9abc edde f43c d0b4 5d3d
000000e0: e828 19bc 2a4d e43d 627a 87bd 1692 6bbc
000000f0: 0e11 9ebd 10e3 d2bc fb5a 103d b58c dd3b
00000100: b0fa 51bd 9ee3 983d 445d fe3c 43d2 703c
00000110: 17de 05bd 44eb 60bd 8751 9d3c 37d4 ecbc
00000120: e482 6fbc 5e65 a23c 9d97 2a3d 2149 243d
00000130: 2a84 3cbd 491b 90bd 562c 6c3d 2de0 1cbd
00000140: b264 6cbd 3909 2fbc 32ab 9fbc c1c6 0dbd
00000150: 2304 efbc 07b8 6a3d e60d babd 6bb6 0cbd
00000160: 27cf 833d 1282 00bd 738d 56bd 7ad2 3e3d
00000170: dded 7abd 00e3 adbd b6cf 05bd c877 5bbb
00000180: fe63 123d 4a5d 0a3d 9001 6c3d a1c5 c7bd
00000190: c75c 653d 4a71 20bd 76e2 10bc fdb1 dabc
000001a0: 68d7 6abd d0c4 013d c2ef eebc eb88 72bd
000001b0: e2ba 30bd 515f 63bd a83d 52bd 9cfb 21bd
000001c0: e9b9 07bd 83b1 943c eb1e 5e3c db91 083d
000001d0: a5a6 853d d887 90bc 1b94 e03c aa8e a8bc
000001e0: 68a4 fabb e890 08bd e708 84bc 1435 dcbb
000001f0: b0c6 67bd 4d9c 1bbc 13eb 6d3d f27d a93c
00000200: da3c 1f3d ceef 9fbd 6089 983c 77ef 20bd
00000210: 5e93 9a3c 65f9 67bd 1844 8fbc e8ed b73c
00000220: 01d8 2a3d b9c4 68bd 35d4 9bbd 64f3 c63c
00000230: 612d aabc 523f f23c f4d4 4abd f7bb edbc
00000240: ea49 933c 11e8 43bd 82e8 963c c32b fbbc
00000250: bf60 dfbb 6086 59bd 9181 d03b 2304 033d
00000260: f925 3d3b 2e0f 1cbd 5036 eb3c d171 5dbd
00000270: 104c 343d 79be 1dbd 8c55 3f3d 53ba 81bd
00000280: a19e e3bb a591 19bd 0c44 973c 1654 d1bd
00000290: 00a7 73bd ce82 72bc f460 3d3d 9958 843d
000002a0: f423 843d 9d5c aabd 7629 6cbd d283 c33c
000002b0: fc45 7c3d 08ee 23bd 3055 89bd c458 22bc
000002c0: a5d0 113d 5d84 0f3d 87f5 143d 3c0b cabc
000002d0: fd55 02bc 6bdf b7bc d145 5a3c 6d54 65bd
000002e0: 4e1a 843c 53fc c43c 475b dbbc f879 3abc
000002f0: 2842 6bbb d3ca 4abd ad77 c83c 26de 56bd
00000300: 4a07 9b3c 2b28 2b3d 7930 57bd 8ab3 023d
00000310: a797 e4bc 32c7 cd3c b196 893a a1a0 38bd
00000320: 095d 5d3d 0604 b3bd 2891 b03c 1c73 92bd
00000330: dbad 53bd 13ad 573c 2696 35bd 1a0d 2e3d
00000340: 6e77 86bd 206c b0bc 1654 3c3b 8fb9 db3b
00000350: ae06 173d ca3d 413d 2a00 c33c 300d 5bbd
00000360: c237 12be 9ebe c53c dd1a f0bc 2b0e bebb
00000370: 59bb 0cbd bbbb 753d c2e9 94bd 2003 99bb
00000380: 34d7 63bc d105 d8bc 8678 98bd 2ab5 953c
00000390: 6e14 843c f9de 043e 6a43 70bd ca6f 583d
000003a0: df61 18bd 83a1 943d 4d63 ebbc 34f3 043d
000003b0: 31e7 4f3c b397 353d 6f60 02bd 593e 893c
000003c0: 1036 ccbc 775a 2ebd dd1d 30bd 83db e4bc
000003d0: 9c43 82bd 0b93 73bd 1c4f 6abd eff8 d23c
000003e0: 63b6 63bd 40dc 133d aad4 6b3d 5d8d 83bd
000003f0: 49f4 ec3c 9000 7e3c 57bc 473c 4ade cd3c

4.weight f4 [100, 500]
0.07464199 0.020788712 0.028059088 0.07992128 -0.18913122 0.03659306 0.10014946 -0.009911619
0.00747904 0.0012748241 0.05424053 0.121089764 -0.0067458856 -0.007445898 0.009292499 0.05160469
0.053298492 0.027708264 -0.0036066212 -0.024034247 -0.009200893 -0.17726688 -0.006813042 0.124778904
-0.08041533 -0.13435626 0.022923652 0.036101375 0.073992595 0.018837903 0.04769851 -0.16698278
0.039276835 0.011213485 -0.0070859045 -0.017116768 -0.039667904 0.11562842 0.013906674 0.06780387
0.029603373 -0.0963169 -0.046278864 0.05078332 -0.12405344 -0.09192817 0.035549942 0.044919778
0.005818769 0.0031102085 0.022674073 0.14147368 0.020232532 0.030498667 -0.03392099 -0.1093063
0.10595862 -0.0022624996 0.014214899 0.0063910233 0.045983806 0.043183006 0.0031162624 0.0961584
0.04143208 0.019003484 -0.02108534 0.09632335 0.0037537038 0.035403173 0.052502498 0.025120493
-0.020531386 0.075930424 0.039756246 0.12268782 -0.030973548 -0.007602876 0.042102795 0.0039127283
0.00733491 -0.0423525 0.07045422 -0.032044455 0.08426427 0.06283842 -0.05546044 0.019579966
0.18087193 -0.005230233 0.09281001 -0.0034790784 0.07424739 -0.00810048 -0.0008446848 0.04327942
-0.028220503 0.026476253 0.041887164 -0.066221155 0.060376327 0.00454916 0.03466736 -0.0056609223
-0.02326199 -0.029502518 -0.003310838 -0.13282046 -0.067718916 0.02800559 0.015400097 0.026620604
0.1211798 0.03949306 -0.043575697 0.09662377 -0.17335649 -0.051683716 -0.005364068 -0.00033861026
-0.016062405 0.023780122 0.05303133 0.020066848 0.13226026 0.030343095 0.044438373 0.02331753
0.0509363 -0.044228993 0.0046713133 -0.04153543 0.05544132 -0.042969666 0.14920849 0.019063558
-0.12306209 -0.009136991 -0.030090531 -0.032063708 0.12765677 0.090798244 0.11573978 -0.032719795
-0.11442176 0.047367554 0.0818107 0.07313645 -0.06344686 -0.008625992 0.059167117 -0.012584624
0.013362688 -0.018914757 0.02594589 0.026826344 0.12599236 0.0058710417 0.09503045 -0.034355048
0.11818598 -0.035322696 -0.011051137 0.005166444 -0.041938856 0.08291555 0.0963995 -0.00017349422
-0.045218393 0.11074281 0.16959299 0.044098254 -0.0864553 0.06417101 -0.041865144 0.0056008585
-0.15640774 0.12887157 -0.022272121 0.11754502 0.009777445 -0.11160902 0.012736714 -0.028043535
-0.06296935 0.045115687 0.030673843 -0.007490416 0.048367366 -0.029757924 0.039454695 0.099740006
-0.049974255 -0.03982449 0.022253696 0.040171202 0.03778045 0.021969618 -0.011958754 0.0038083282
0.0128259305 0.013344851 0.0016213879 -0.017057247 -0.03112154 -0.13111416 0.13545735 0.036158424
0.040020954 -0.0015164874 -0.12455333 -0.0010877689 0.0076947995 -0.029206691 -0.025842246 -0.016660208
0.023331482 0.10186338 -0.12736632 -0.093137935 0.065267175 -0.12510125 0.012159277 -0.022873243
0.032618456 -0.030122798 -0.02987439 0.041373983 0.013887199 0.028105322 -0.03321374 0.024261758
0.020924045 -0.03854138 0.02283545 0.013564721 -0.10339626 -0.016990017 0.054341055 -0.040763568
-0.09648443 -0.026414596 0.006425824 0.003914309 0.06257735 -0.035470493 0.029207166 -0.18560122
0.029658156 0.029435087 0.0021139455 0.0025259769 0.002580698 0.04550535 -0.0010335144 0.018409168
00000000: e6dd 983d 174d aa3c 2cdc e53c c5ad a33d
00000010: 9dab 41be 9be2 153d 291b cd3d 5864 22bc
00000020: bc12 f53b 0018 a73a 512b 5e3d e9fd f73d
00000030: 970c ddbb b8fc f3bb 913f 183c 705f 533d
00000040: 854f 5a3d 71fc e23c 105d 6cbb 78e3 c4bc
00000050: 58bf 16bc 7385 35be f03f dfbb 158c ff3d
00000060: cbb0 a4bd b094 09be 62ca bb3c 09df 133d
00000070: 6e89 973d f251 9a3c 835f 433d 89fd 2abe
00000080: bfe0 203d c4b8 373c e030 e8bb 7738 8cbc
00000090: d07a 22bd 98ce ec3d d2d8 633c c1dc 8a3d
000000a0: c682 f23c cb41 c5bd e88e 3dbd 2c02 503d
000000b0: bb0f febd d644 bcbd d19c 113d cdfd 373d
000000c0: 5fab be3b a4d4 4b3b fabe b93c 7ade 103e
000000d0: b2be a53c 57d8 f93c bcf0 0abd fbdb dfbd
000000e0: d500 d93d 7246 14bb 9ce5 683c ca6b d13b
000000f0: 8459 3c3d aae0 303d 353a 4c3b b2ee c43d
00000100: afb4 293d 32ad 9b3c 2abb acbc 2d45 c53d
00000110: b300 763b eb02 113d dc0c 573d 7ec9 cd3c
00000120: 7031 a8bc 6981 9b3d 72d7 223d c043 fb3d
00000130: 3dbc fdbc 8c21 f9bb fb73 2c3d 5836 803b
00000140: af59 f03b d179 2dbd 4d4a 903d 0c41 03bd
00000150: bf92 ac3d 6eb1 803d 7d2a 63bd 2a66 a03c
00000160: 7e36 393e 6062 abbb 2d13 be3d 4001 64bb
00000170: 040f 983d e0b7 04bc d66d 5dba c345 313d
00000180: af2e e7bc bae4 d83c e091 2b3d f59e 87bd
00000190: 2b4d 773d 1f11 953b 5dff 0d3d 427f b9bb
000001a0: ee8f bebc 44af f1bc a5fa 58bb 1602 08be
000001b0: 37b0 8abd fb6b e53c b050 7c3c 7413 da3c
000001c0: 1d2d f83d 7ac3 213d 6e7c 32bd afe2 c53d
000001d0: 5d84 31be 4eb2 53bd 10c5 afbb 8087 b1b9
000001e0: 4e95 83bc 88ce c23c 6137 593d 3b63 a43c
000001f0: 3c6f 073e 1592 f83c 0305 363d 6804 bf3c
00000200: 95a2 503d 7629 35bd d111 993b 0e21 2abd
00000210: 7016 633d f600 30bd 1cca 183e 2e2b 9c3c
00000220: fa07 fcbd 51b3 15bc 6b80 f6bc 3c55 03bd
00000230: 75b8 023e 6ef4 b93d fa08 ed3d 3105 06bd
00000240: f555 eabd 7b04 423d 5e8c a73d 90c8 953d
00000250: 6df0 81bd 0854 0dbc 3859 723d bd2f 4ebc
00000260: 2def 5a3c 1ff3 9abc 7a8c d43c ecc2 db3c
00000270: 2404 013e de61 c03b 539f c23d e1b7 0cbd
00000280: 7e0b f23d 88ae 10bd d40f 35bc 464b a93b
00000290: 14c8 2bbd a1cf a93d 1a6d c53d 00ec 35b9
000002a0: ec36 39bd 20cd e23d c9a9 2d3e 5fa0 343d
000002b0: 7a0f b1bd 176c 833d c97a 2bbd 6887 b73b
000002c0: 5a29 20be e9f6 033e 0674 b6bc 72bb f03d
000002d0: 9431 203c 4593 e4bd a7ad 503c 8ebb e5bc
000002e0: 13f6 80bd 3acb 383d b647 fb3c 2a72 f5bb
000002f0: dc1c 463d e4c6 f3bc 3f9b 213d 7d44 cc3d
00000300: ceb1 4cbd 011f 23bd 624d b63c 8f8a 243d
00000310: acbf 1a3d a1f9 b33c a6ee 43bc 2595 793b
00000320: da23 523c 5da4 5a3c c084 d43a a4bb 8bbc
00000330: 9af2 febc ca42 06be 55b5 0a3e db1a 143d
00000340: 03ed 233d e0c4 c6ba d115 ffbd 7893 8eba
00000350: a824 fc3b df42 efbc 1eb3 d3bc fd7a 88bc
00000360: aa21 bf3c bf9d d03d 516c 02be 1abf bebd
00000370: ccaa 853d 8b1a 00be b437 473c ab60 bbbc
00000380: ee9a 053d 16c4 f6bc 23bb f4bc c477 293d
00000390: 2287 633c 223d e63c 210b 08bd 98c0 c63c
000003a0: e768 ab3c 91dd 1dbd 6911 bb3c 903e 5e3c
000003b0: 6bc1 d3bd a62e 8bbc ba94 5e3d b3f7 26bd
000003c0: a199 c5bd 6c63 d8bc b88f d23b 9b43 803b
000003d0: 8e28 803d 8249 11bd de43 ef3c 3f0e 3ebe
000003e0: a9f5 f23c da21 f13c 1f8a 0a3b dc8a 253b
000003f0: ee20 293b d163 3a3d fd76 87ba d3ce 963c

4.bias f4 [100]
0.008553125 0.06956573 -0.06905399 0.036571898 0.0748065 0.031076515 -0.035689127 0.014987888
-0.020788126 0.0245658 0.002151765 0.042075884 -0.041838028 0.0376149 0.067575514 0.010255273
-0.016871268 0.00032687504 0.031330433 -0.0038671046 0.035776775 0.026478974 0.007278623 0.074625775
-0.027197056 0.03819886 0.02452534 -0.022025999 0.08079728 0.0014588115 -0.035021923 -0.0354583
-0.03421214 0.068753995 -0.0045941076 -0.039522897 -0.008697322 -0.015620467 -0.035739236 0.036477238
0.023108345 -0.019898564 -0.03581482 0.02338021 -0.034154072 -0.0542172 -0.02315103 -0.00074419734
-0.037701864 0.0011126832 -0.058817435 0.007322178 -0.01288804 0.0022025 0.020305926 0.009338418
0.04814762 -0.017358264 -0.03226128 -0.0013237409 0.0073349085 -0.012224131 -0.009941735 -0.008754027
0.020934086 -0.021590339 -0.030404244 0.030409534 -0.04166557 -0.039774954 0.030591179 -0.04632525
-0.043542054 0.041662198 0.103059806 -0.008759543 -0.00030691107 0.035687648 -0.0062627704 -0.0025482406
-0.007114868 -0.02091859 0.030693412 0.0094503965 0.082545005 0.018616917 -0.010430111 -0.03835012
0.0019871057 -0.0023558454 0.008010964 -0.03182365 -0.04997408 -0.020755373 -0.002453617 0.10821558
0.0019997046 0.026867004 -0.024978187 -0.0010835174
00000000: 6822 0c3c 7a78 8e3d 2e6c 8dbd 6acc 153d
00000010: 2634 993d 2d94 fe3c c32e 12bd c28f 753c
00000020: dc4b aabc 373e c93c a004 0d3b c357 2c3d
00000030: 5a5e 2bbd 1512 1a3d 0865 8a3d bc05 283c
00000040: 9d35 8abc 6d60 ab39 5754 003d 406f 7dbb
00000050: ab8a 123d 6fea d83c 8481 ee3b 66d5 983d
00000060: 5ccc debc 6876 1c3d 5ee9 c83c de6f b4bc
00000070: 0b79 a53d 9735 bf3a 2673 0fbd b93c 11bd
00000080: 0722 0cbd e5ce 8c3d 2b8a 96bb c3e2 21bd
00000090: 367f 0ebc fdec 7fbc 4e63 12bd 2869 153d
000000a0: b64d bd3c 5002 a3bc 90b2 12bd db87 bf3c
000000b0: 24e5 0bbd db12 5ebd 3ba7 bdbc 3d16 43ba
000000c0: 456d 1abd 74d7 913a 8dea 70bd e2ee ef3b
000000d0: 5c28 53bc d157 103b 9d58 a63c 2a00 193c
000000e0: 7036 453d eb32 8ebc 6724 04bd 6081 adba
000000f0: ac59 f03b b947 48bc a9e2 22bc 0d6d 0fbc
00000100: f67d ab3c 39de b0bc 5212 f9bc 6a1d f93c
00000110: 84a9 2abd 10eb 22bd 5a9a fa3c 8cbf 3dbd
00000120: 2759 32bd fba5 2a3d 0511 d33d 3084 0fbc
00000130: e8e8 a0b9 362d 123d ed37 cdbb 6200 27bb
00000140: d723 e9bb 765d abbc c070 fb3c d6d5 1a3c
00000150: 5b0d a93d 8182 983c 0ee3 2abc 0415 1dbd
00000160: 1a3a 023b 8764 1abb 6b40 033c 8459 02bd
00000170: 9fb1 4cbd 2c07 aabc ddcc 20bb 21a0 dd3d
00000180: 7a0d 033b 3118 dc3c 0e9f ccbc d004 8eba

6.weight f4 [2, 100]
-0.19898833 0.13186406 -0.034101564 -0.17736086 0.16187024 -0.1774288 0.03768353 0.004155459
-0.20876075 -0.20598356 -0.14461654 -0.15465784 -0.067689955 -0.18623313 0.08399962 -0.21938616
-0.14697807 -0.002404258 -0.05936413 -0.022137612 -0.15731242 0.070648015 -0.19366251 0.15088372
0.047958136 0.20027052 0.18441921 0.030821376 0.16042665 0.05020923 0.01383464 -0.1969918
0.02593639 0.1284226 0.07068272 0.062782526 -0.1731513 0.044902343 0.040847823 -0.16100268
-0.14299944 -0.16506928 -0.052135825 -0.09601494 -0.18904951 0.026176266 0.094004594 -0.2219673
0.07625196 -0.23400487 0.07509641 0.043285772 -0.08206894 0.054503817 0.20188825 0.025945026
-0.1380584 0.046337225 0.030752651 -0.17773896 0.055329908 0.04225276 -0.20782256 -0.003959005
0.06339318 0.040454723 -0.053480722 0.19845437 -0.051115334 -0.23365563 -0.0813056 0.005009117
0.06097833 -0.18575887 0.07962654 0.00437029 0.060699392 0.090392165 -0.16541521 -0.082458094
-0.0042241383 -0.22743034 0.053940326 -0.052845757 -0.084650196 -0.13775097 0.08681343 -0.076444216
0.16455059 -0.21166669 -0.0023667114 -0.17273857 0.059240866 -0.20901309 -0.1738742 0.102896266
-0.14295267 0.0011756669 -0.21600612 0.063926935 -0.023609634 0.21104124 -0.03630004 -0.14139135
-0.06280849 0.041913353 -0.081219755 0.087953515 -0.043199085 -0.15504517 -0.19495665 -0.1228027
-0.086296916 -0.018570868 0.19173759 -0.11739637 -0.04317398 -0.05017258 -0.06478796 -0.080858424
-0.029761389 -0.04865656 -0.010259451 0.22509503 -0.056299638 0.076790124 0.16204613 0.06932737
0.119057916 0.07012011 -0.045276653 -0.023156172 0.04338277 0.1421109 0.052569903 -0.016272917
-0.16097541 -0.04029496 0.0020621147 -0.050084177 -0.15919076 -0.21384548 -0.05991947 -0.022124909
-0.15699278 0.0064067543 -0.023551121 -0.030251445 0.05848317 -0.047097065 0.019851984 -0.09868331
-0.020960014 0.09207143 0.10060175 -0.01710806 -0.15683015 -0.04724571 -0.0018384523 0.2958915
0.06637975 -0.00641571 -0.009513834 -0.035204485 -0.017053053 -0.049449243 0.030052837 0.17712566
-0.09246411 -0.075089365 -0.009302132 0.003063304 -0.031097863 -0.13661234 0.14641446 -0.048366677
-0.016922655 0.03098879 -0.18598512 0.023040488 0.006296815 -0.17646939 -0.011725686 -0.054437384
0.31599587 -0.10859944 -0.013200715 0.0057509216 0.090694524 -0.12930813 0.08484345 -0.13954298
-0.049278963 0.01769708 -0.05590536 0.14404793 -0.15859462 -0.05703504 -0.16271922 0.01938649
00000000: 99c3 4bbe 5f07 073e 15ae 0bbd 169e 35be
00000010: 50c1 253e e5af 35be 0c5a 1a3d 842a 883b
00000020: 61c5 55be 5bed 52be 5c16 14be a05e 1ebe
00000030: 08a1 8abd e6b3 3ebe fe07 ac3d c4a6 60be
00000040: 6b81 16be c190 1dbb cd27 73bd f059 b5bc
00000050: 8216 21be e8af 903d 774f 46be 4381 1a3e
00000060: c06f 443d b713 4d3e 64d8 3c3e 1c7d fc3c
00000070: e246 243e 32a8 4d3d b0aa 623c 38b8 49be
00000080: 8d78 d43c 3781 033e 1ac2 903d 2094 803d
00000090: 934e 31be 85eb 373d 0c50 273d e3dd 24be
000000a0: 726e 12be ec07 29be 608c 55bd 7ba3 c4bd
000000b0: 3296 41be 9c6f d63c 7b85 c03d 654b 63be
000000c0: fd29 9c3d f99e 6fbe 26cc 993d 6c4c 313d
000000d0: c313 a8bd 653f 5f3d cbbb 4e3e aa8a d43c
000000e0: 2e5f 0dbe 1acc 3d3d fcec fb3c 3401 36be
000000f0: 9da1 623d 3b11 2d3d 70cf 54be 8aba 81bb
00000100: 49d4 813d dab3 253d 9a0e 5bbd 9f37 4b3e
00000110: 505e 51bd 6c43 6fbe 8d83 a6bd 8523 a43b
00000120: 6ac4 793d 9337 3ebe 3d13 a33d a634 8f3b
00000130: ed9f 783d 871f b93d 9b62 29be cadf a8bd
00000140: a46a 8abb 80e3 68be 88f0 5c3d cb74 58bd
00000150: 155d adbd 970e 0dbe 3dcb b13d c98e 9cbd
00000160: f37f 283e 27bf 58be d41a 1bbb 61e2 30be
00000170: 8da6 723d 8707 56be 140c 32be 47bb d23d
00000180: 2f62 12be d618 9a3a b530 5dbe 20ec 823d
00000190: fe68 c1bc 321b 583e 5aaf 14bd e5c8 10be
000001a0: bda1 80bd 56ad 2b3d 8b56 a6bd f920 b43d
000001b0: 86f1 30bd 29c4 1ebe b7a2 47be fb7f fbbd
000001c0: 70bc b0bd ef21 98bc dc56 443e 826d f0bd
000001d0: 33d7 30bd c381 4dbd 8daf 84bd 1a99 a5bd
000001e0: 28ce f3bc 1a4c 47bd 4217 28bc 507f 663e
000001f0: 739a 66bd 2444 9d3d 6cef 253e 82fb 8d3d
00000200: a3d4 f33d 229b 8f3d 0374 39bd 03b2 bdbc
00000210: 22b2 313d 8585 113e 8a53 573d c84e 85bc
00000220: bdd6 24be 540c 25bd 8b24 073b 1125 4dbd
00000230: e702 23be 4ffa 5abe 1e6e 75bd 4c3f b5bc
00000240: b7c2 20be c0ef d13b 48ee c0bc e1d1 f7bc
00000250: 0c8c 6f3d dae8 40bd a1a0 a23c 7a1a cabd
00000260: 56b4 abbc f28f bc3d 4a08 ce3d 3426 8cbc
00000270: 1598 20be b884 41bd 39f8 f0ba 177f 973e
00000280: 1bf2 873d e03a d2bb e9df 1bbc 9432 10bd
00000290: d8b2 8bbc 4a8b 4abd 5e31 f63c 6e60 353e
000002a0: d35d bdbd 74c8 99bd f867 18bc b6c1 483b
000002b0: f2c0 febc 1be4 0bbe aced 153e 231c 46bd
000002c0: 61a1 8abc 34dc fd3c e272 3ebe 68bf bc3c
000002d0: 8355 ce3b 64b4 34be 171d 40bc bcf9 5ebd
000002e0: 36ca a13e 6269 debd d047 58bc 3a72 bc3b
000002f0: 0dbe b93d 5a69 04be 67c2 ad3d 5be4 0ebe
00000300: bdd8 49bd 77f9 903c 05fd 64bd 4d81 133e
00000310: a166 22be 939d 69bd de9f 26be 6bd0 9e3c
