flappy_bird_dqn-main/my_model.ckpt (torch, 610767 bytes, 7 tensors)

0.weight f4 [200, 5]
0	0x3ea14c69	0.3150361
1	0xbde4f236	-0.111790106
2	0xbcada44a	-0.021196503
3	0xbdb71fb7	-0.08941596
4	0xbdc53442	-0.09629108
5	0xbe2abc5a	-0.16673413
6	0xbeeb8119	-0.4599693
7	0x3c0ada5f	0.008474915
8	0xbe439fcc	-0.19103926
9	0x3d0cc0cd	0.034363557
10	0xbea68215	-0.3252112
11	0x3e9f6714	0.3113333
12	0xbea1c494	-0.3159529
13	0xbb90bc22	-0.0044169584
14	0xbcf99ad2	-0.030469332
15	0xbedb05c4	-0.42777836
16	0x3e87f4ce	0.2655396
17	0x3e2870dc	0.16449302
18	0x3ed08815	0.40728822
19	0x3edb529f	0.42836472
20	0x3d2b3874	0.041801885
21	0xbda34d64	-0.079737455
22	0x3e5413f1	0.20710732
23	0xbe077057	-0.13226448
24	0xbd5c84bf	-0.053837534
25	0x3ecbd768	0.3981278
26	0xbeceaf3e	-0.40368074
27	0xbec15cb9	-0.37766054
28	0x3ec32968	0.38117528
29	0xbebd544a	-0.3697837
30	0x3d798945	0.060921926
31	0x3ed6e90e	0.41974682
32	0x3e9a8e43	0.30186662
33	0xbed01a76	-0.40645188
34	0xbeec9463	-0.4620696
35	0xbe686b81	-0.2269726
36	0x3e8c742a	0.27432376
37	0xbeb4085a	-0.35162622
38	0x3e258200	0.16162872
39	0xbe6d7ed0	-0.23192906
40	0x3ea1ed40	0.3162632
41	0xbeac3ee7	-0.3364174
42	0xbe76ab6c	-0.2408883
43	0xbe9e8305	-0.30959335
44	0x3e5b5b00	0.21421432
45	0x3de4e98d	0.11177359
46	0x3d38f32b	0.045153778
47	0xbe5be7a0	-0.21475077
48	0x3d9ea04b	0.07745417
49	0x3e9961f7	0.29957554
50	0x3c7ceb3e	0.0154369455
51	0x3e48a353	0.19593553
52	0x3eb8a54c	0.36063612
53	0x3e2ff253	0.17182283
54	0x3da63630	0.08115804
55	0x3e88d6ad	0.26726285
56	0x3dabe982	0.083941475
57	0x3ec1b122	0.37830454
58	0xbee8afed	-0.4544672
59	0xbed6d6fb	-0.41960892
60	0x3e914ff7	0.2838132
61	0x3d184a19	0.03718004
62	0xbcb238b6	-0.021755558
63	0xbdfa08b1	-0.12208689
64	0x3c57fd7a	0.013182992
65	0x3e8b62b1	0.27223733
66	0xbe90cd72	-0.28281742
67	0xbe800554	-0.25004065
68	0x3e322cf3	0.1739996
69	0xbed6de0f	-0.41966292
70	0x3eb7e32d	0.3591551
71	0x3e3521db	0.17688696
72	0x3e24ab1d	0.160809
73	0xbe928d5f	-0.28623483
74	0xbef0bdc6	-0.47019786
75	0xbe447267	-0.19184266
76	0xbe4b83f3	-0.19874553
77	0x3e59b3de	0.2126002
78	0x3ebfa97b	0.3743399
79	0xbd991a83	-0.0747576
80	0x3bbc3424	0.0057435203
81	0x3ed82ad8	0.42220187
82	0x3e8bbd0e	0.27292675
83	0xbd544f0e	-0.051833205
84	0x3e2ccde8	0.16875422
85	0xbdf72179	-0.12066931
86	0xbeab2efb	-0.3343428
87	0x3e3d6923	0.18497138
88	0x3d8b45cc	0.06800422
89	0xbdb227d4	-0.08699003
90	0xbecdb4c1	-0.40176967
91	0x3eaffa11	0.34370473
92	0x3dde1174	0.10843173
93	0x3e1c1a8a	0.15244499
94	0xbc06ad2f	-0.008220001
95	0xbeddb51f	-0.43302247
96	0xbdb8a66c	-0.090161175
97	0xbeb7f886	-0.35931796
98	0x3e5b6504	0.21425253
99	0xbdc4a55c	-0.09601852
100	0x3e2ed084	0.1707173
101	0x3deff0b3	0.117158316
102	0xbeda1d65	-0.4260055
103	0x3ea5f186	0.3241083
104	0x3ea9b317	0.33144447
105	0xbd9ea3b0	-0.07746065
106	0x3dc87308	0.097875655
107	0x3e168d2c	0.1470229
108	0xbee32b1c	-0.44368827
109	0xbec26727	-0.37969324
110	0xbeb474c4	-0.35245335
111	0xbeb6466e	-0.3560061
112	0x3e1cfbce	0.15330431
113	0x3d2ba2a5	0.041903157
114	0xbe55301d	-0.20819135
115	0xbf2c26c2	-0.6724664
116	0xbe98cfca	-0.2984603
117	0xbf0913f5	-0.53546077
118	0xbe917a4e	-0.28413624
119	0x3ee14827	0.4400036
120	0xbec68029	-0.38769653
121	0x3e9830a7	0.2972462
122	0xbe99387c	-0.29925907
123	0x3e33e70a	0.17568603
124	0x3b787cbd	0.0037916147
125	0xbed5cf09	-0.41759518
126	0x3e0ab413	0.13545255
127	0xbe597ad7	-0.21238266
128	0xbd43a286	-0.047762416
129	0x3e1cef68	0.15325701
130	0xbdc20f16	-0.09475534
131	0xbe3e049b	-0.18556444
132	0x3e7f945a	0.24958935
133	0xbe2a59ac	-0.1663577
134	0x3e00c552	0.12575272
135	0x3e8f6b72	0.28011662
136	0x3e8c5869	0.27411202
137	0xbdcc7037	-0.09982341
138	0xbed2dd5a	-0.41184503
139	0x3ed75336	0.42055672
140	0xbdc9446a	-0.09827502
141	0xbd9fdc6d	-0.07805715
142	0x3e8fa052	0.28052002
143	0xbd5e34b3	-0.054249477
144	0x3ea06a04	0.31330884
145	0x3d44a134	0.048005298
146	0x3e30d948	0.17270386
147	0xbc79378a	-0.015210995
148	0x3e4527ac	0.19253415
149	0x3c50073c	0.012697037
150	0x3e8d3bab	0.27584586
151	0x3e413725	0.18868692
152	0xbeb275da	-0.3485554
153	0x3e7d94aa	0.24763742
154	0x3d382874	0.044960454
155	0xbf313206	-0.69216955
156	0xbe4e967a	-0.2017459
157	0xbf0899ee	-0.5335988
158	0x3ea34f32	0.3189636
159	0xbdbe3b1a	-0.092886165
160	0x3ca8c8c5	0.020603547
161	0xbe8e26fe	-0.27764124
162	0xbdf96edd	-0.121793486
163	0x3ed7cd12	0.42148644
164	0x3eed67a3	0.4636813
165	0x3ebdb596	0.37052602
166	0x3ee03d62	0.4379683
167	0xbed655d0	-0.41862345
168	0xbdd08467	-0.10181504
169	0xbea24bf1	-0.31698564
170	0x3eaac5f4	0.3335415
171	0x3dbe41a6	0.09289865
172	0x3edeeb73	0.43539008
173	0xbe6b40b2	-0.22973898
174	0xbd821e1e	-0.06353401
175	0x3e088ba2	0.13334516
176	0xbea588c3	-0.32330903
177	0xbe038a0c	-0.1284563
178	0xbc91af82	-0.017783884
179	0x3ed7c6c4	0.42143834
180	0xbe4ca632	-0.19985273
181	0xbcec649a	-0.028856564
182	0x3edec9c4	0.4351331
183	0x3d89f6d0	0.06736529
184	0x3efa9d77	0.4894826
185	0xbd379a71	-0.04482502
186	0xbdf67927	-0.12034827
187	0xbda63360	-0.08115268
188	0xbe6ef1a9	-0.23334374
189	0x3e0089a2	0.12552503
190	0x3c142be8	0.009043671
191	0x3e677f54	0.22607166
192	0x3e9bb1ff	0.30409238
193	0x3e8c6ac4	0.27425206
194	0x3e4eadd5	0.20183499
195	0xbeda1c84	-0.4259988
196	0xbed3103f	-0.41223332
197	0x3ea03e52	0.31297547
198	0x3e9856ad	0.29753628
199	0xbe607074	-0.21917897
200	0xbe1938c8	-0.14963067
201	0x3e362bdc	0.17790169
202	0xbe5c39e9	-0.21506466
203	0xbe91b1ec	-0.28456056
204	0xbea69d1a	-0.32541734
205	0x3ede0a6c	0.43367326
206	0x3dcfacf5	0.10140411
207	0x3e3434d2	0.17598274
208	0x3b5e082a	0.0033879378
209	0xbe28a1fd	-0.16468044
210	0xbdee1a3d	-0.11626098
211	0xbe811316	-0.25209874
212	0xbe173737	-0.14767157
213	0xbe912a04	-0.28352368
214	0x3e7dfaee	0.24802753
215	0xbec058ce	-0.37567753
216	0x3e8c3f39	0.27391985
217	0x3de97790	0.11399758
218	0xbdf9e5ed	-0.12202058
219	0xbeb393a9	-0.35073593
220	0x3e182938	0.14859474
221	0x3ea95ee0	0.33080196
222	0x3e5a46a7	0.21316014
223	0x3ed50f83	0.41613397
224	0xbec8376c	-0.39104784
225	0xbe954ad2	-0.29158646
226	0xbe99e9b4	-0.30061114
227	0x3e7a3b7d	0.24436755
228	0x3c1acae9	0.009447792
229	0xbe8b4119	-0.27198103
230	0x3da6a5b8	0.08137077
231	0x3e9926fb	0.29912552
232	0x3da2d2fb	0.079503976
233	0x3ed345f2	0.41264302
234	0x3d95f471	0.07322014
235	0xbdb1d677	-0.08683484
236	0xbede4a02	-0.43415838
237	0xbe3b4858	-0.18289316
238	0x3ebb2e82	0.3655892
239	0x3e940fbc	0.28918254
240	0x3db7e30f	0.08978855
241	0x3d06c351	0.032901112
242	0xbe73cc90	-0.23808503
243	0x3ede88e4	0.43463814
244	0x3c05b0c9	0.008159825
245	0x3cd43197	0.025902553
246	0x3ee747a3	0.45171842
247	0x3e5a95b3	0.21346168
248	0x3e0fe837	0.14053427
249	0xbe86ddbb	-0.26341042
250	0x3c95a735	0.018268207
251	0x3dbf8efa	0.093534425
252	0x3ed77770	0.4208331
253	0xbe36e1fd	-0.17859645
254	0xbde05a2a	-0.109546974
255	0x3e8e8d70	0.27842283

0.bias f4 [200]
0	0xbe9058d8	-0.28192782
1	0x3da3aa73	0.07991495
2	0x3d78bb21	0.060725335
3	0x3eb57408	0.35440087
4	0x3e53711d	0.20648618
5	0xbed53e4f	-0.416491
6	0x3cdfc19c	0.027314
7	0xbe630885	-0.22171219
8	0xbe2f3c93	-0.17112951
9	0x3ed75d5c	0.42063415
10	0x3e3ec294	0.18628913
11	0x3e423755	0.1896642
12	0xbdde3917	-0.10850733
13	0xbd977d89	-0.07396991
14	0xbdf462e0	-0.119329214
15	0x3ed86386	0.4226343
16	0x3eb1f651	0.34758237
17	0x3e9e4d89	0.3091853
18	0xbe2dba6f	-0.1696565
19	0xbed4e288	-0.4157908
20	0xbe0d5704	-0.13802725
21	0x3b88e840	0.004178077
22	0x3d1b7647	0.037954595
23	0xbeacd627	-0.33757135
24	0x3e777b6b	0.24168174
25	0x3ded8846	0.11598258
26	0x3e94f16d	0.29090443
27	0xbe9433f3	-0.28945884
28	0x3cd2f2ac	0.02575048
29	0x3ed85c48	0.42257905
30	0x3e9a1b62	0.30099016
31	0x3e721ee7	0.23644601
32	0x3e779156	0.24176535
33	0xbe69ce31	-0.22832562
34	0x3eb9cb6b	0.36288008
35	0xbeba633c	-0.36403835
36	0xbe954e65	-0.29161373
37	0x3ec73bbd	0.38912764
38	0xbed22817	-0.4104621
39	0xbe42b481	-0.1901417
40	0xbe958be8	-0.29208302
41	0xbecc480e	-0.39898723
42	0xbe4a5abb	-0.19761173
43	0x3ee3db0b	0.44503054
44	0xbe5a5cd4	-0.21324474
45	0x3e3b6ae6	0.18302497
46	0xbebe8482	-0.3721047
47	0x3e5037b0	0.20333743
48	0x3e8cbf9f	0.27489945
49	0xbec9b886	-0.39398593
50	0xbb3feaba	-0.0029284195
51	0x3edb42ad	0.42824307
52	0x3ec94d95	0.39317003
53	0xbd23dac8	-0.040003568
54	0x3e828f4d	0.25499955
55	0xbeb78dfe	-0.3585052
56	0xbcb5932a	-0.0221649
57	0xbdbda478	-0.092598855
58	0xbe813de2	-0.25242525
59	0xbed77226	-0.42079276
60	0x3e4c79fb	0.19968407
61	0xbed95388	-0.42446542
62	0x3db2a2e3	0.087224744
63	0x3cb02911	0.021503957
64	0xbe92c722	-0.2866755
65	0xbe2b0997	-0.16702877
66	0xbe98721e	-0.29774565
67	0x3e0da3ad	0.13831969
68	0x3ea5fa3c	0.32417476
69	0x3d308924	0.043099537
70	0xbec2e45a	-0.38064843
71	0xbe3d918c	-0.18512553
72	0x3dc05c84	0.09392646
73	0xbd01d126	-0.0316936
74	0x3ee5dbfb	0.44894394
75	0x3cb0fedd	0.021605903
76	0xbe516388	-0.20448124
77	0x3eee4d5c	0.46543396
78	0x3ec27c40	0.3798542
79	0x3e1941ed	0.14966555
80	0x3e29ab05	0.16569145
81	0xbef40d52	-0.47666413
82	0xbe9c3346	-0.3050787
83	0xbd3f03fb	-0.046634655
84	0xbc2a2dc6	-0.01038689
85	0xbea94a80	-0.3306465
86	0x3c30df67	0.010795451
87	0xbe934478	-0.28763175
88	0xbe913141	-0.2835789
89	0xbe3d0b59	-0.1846136
90	0xbe1a3bdc	-0.15061897
91	0x3ee54070	0.44775724
92	0x3eaadf5b	0.33373532
93	0xbea05fb2	-0.3132301
94	0x3e960782	0.29302603
95	0x3cad08d6	0.021122377
96	0xbe97d872	-0.29657322
97	0x3e9adda6	0.3024723
98	0x3ee60151	0.4492288
99	0x3e150b78	0.14555156
100	0x3ed67a20	0.4189005
101	0x3ea0abf2	0.31381184
102	0xbec56bc9	-0.38558796
103	0xbe645939	-0.2229966
104	0xbe2c267c	-0.16811556
105	0x3ec7ded0	0.3903718
106	0x3e4ca948	0.1998645
107	0xbeab6720	-0.33477116
108	0xbed2b770	-0.41155577
109	0xbddd2fe0	-0.10800147
110	0x3c23ecca	0.010005185
111	0xbea8ee1b	-0.3299416
112	0xbec472d7	-0.38368866
113	0x3e34f621	0.17672016
114	0x3ebf4b26	0.3736202
115	0x3ed73312	0.4203115
116	0xbe2a0f12	-0.16607311
117	0x3e322e2f	0.1740043
118	0xbe809930	-0.25116873
119	0x3ef5dc94	0.4801985
120	0x3e577417	0.21040379
121	0xbecc2317	-0.3987052
122	0xbe970892	-0.29498726
123	0x3e8f89ec	0.28034914
124	0xbe2f8b8e	-0.1714308
125	0x3e98508b	0.2974895
126	0x3dce5af0	0.10075939
127	0x3de49926	0.11162023
128	0x3ec42a5a	0.38313562
129	0xbe084b89	-0.13310064
130	0xbe7022a3	-0.23450713
131	0xbd8ac360	-0.06775546
132	0xbcdb3d2c	-0.026762567
133	0xbe9e139e	-0.30874342
134	0xbee8a847	-0.45440885
135	0xbd80a1f0	-0.06280887
136	0x3e2989ed	0.16556521
137	0xbe25c7ac	-0.1618945
138	0x3d2e2b34	0.04252167
139	0x3e1f6425	0.15565546
140	0xbe982110	-0.29712725
141	0xbe18a5c2	-0.14906982
142	0x3e82d3a5	0.25552097
143	0xbec9c350	-0.39406824
144	0xbecda1fe	-0.40162653
145	0x3d065613	0.03279693
146	0x3e8a6251	0.27028134
147	0x3e80b7c9	0.25140217
148	0xbe20250a	-0.1563913
149	0xbea1e673	-0.3162113
150	0x3d478fa6	0.04872098
151	0xbe93d3f7	-0.28872654
152	0xbe956777	-0.291805
153	0x3ee73053	0.45154056
154	0xbe92dcf2	-0.28684193
155	0x3ea38291	0.31935552
156	0x3e34860a	0.17629257
157	0x3eb9c3c9	0.36282185
158	0x3ea26b2b	0.31722388
159	0xbd6792a1	-0.05653632
160	0x3ea33c78	0.31882071
161	0xbe2b77d4	-0.1674493
162	0x3da39fd0	0.07989466
163	0xbe141c1c	-0.14463848
164	0x3e5eb05f	0.21746968
165	0xbebe0a1a	-0.37117082
166	0x3e11d3fd	0.14241023
167	0xbe94bd24	-0.29050553
168	0x3cf34723	0.029697007
169	0xbdb15690	-0.086590886
170	0xbd953627	-0.07285719
171	0x3eb58911	0.35456136
172	0x3ebaf210	0.36512804
173	0x3e96328d	0.29335442
174	0xbe07d72a	-0.13265672
175	0xbedf689f	-0.43634507
176	0xbda664b1	-0.08124674
177	0x3d1b45fe	0.037908547
178	0xbec488ad	-0.38385525
179	0x3e61bcad	0.2204463
180	0x3eaa4d78	0.3326223
181	0xbd3f4eea	-0.046706118
182	0xbe1b0f6e	-0.15142605
183	0x3d8085d2	0.06275524
184	0xbd364009	-0.044494662
185	0x3e6c3a95	0.23069222
186	0x3e96429b	0.2934769
187	0x3dedd4dd	0.11612866
188	0xbde1e2ad	-0.11029563
189	0xbe8dab5c	-0.276698
190	0xbed8940c	-0.4230045
191	0x3ea81bdc	0.32833755
192	0xbe9268ea	-0.28595668
193	0xbec2cd8c	-0.38047445
194	0xbdc7cb00	-0.09755516
195	0xbe95b16c	-0.29236925
196	0x3d84d093	0.06485095
197	0xbd830af0	-0.063985705
198	0xbebaaac0	-0.36458397
199	0xbe113049	-0.14178576

2.weight f4 [500, 200]
0	0x3c163d50	0.0091698915
1	0x3c689e86	0.014197951
2	0x3d2b6e08	0.04185298
3	0xbcadcf28	-0.021216944
4	0x3c6b828a	0.014374385
5	0xbca01132	-0.01953945
6	0x3d12b57d	0.035817612
7	0x3a9d8980	0.0012019128
8	0x3d4d7db2	0.0501687
9	0x3d528f78	0.051406354
10	0x3cf9eb7e	0.0305078
11	0xbb30506e	-0.0026903409
12	0xbcf06e6d	-0.02934953
13	0x3ba0a0ed	0.0049019963
14	0xbd5484fb	-0.051884633
15	0xbd9a0f66	-0.07522468
16	0xbc9c5529	-0.019083576
17	0x3d6772e5	0.056506056
18	0x3c4af4ea	0.012387494
19	0x3d11df24	0.035613194
20	0xbd68dca4	-0.056851044
21	0xbd68426e	-0.056703977
22	0xbd105e54	-0.03524621
23	0xbd7b447b	-0.061344605
24	0x3d1fc1f7	0.03900334
25	0xbcd3ac9e	-0.025839146
26	0x3b9aeb17	0.004727732
27	0x3ca18fc3	0.019721871
28	0x3c641375	0.013920655
29	0xbd518c2e	-0.051159076
30	0x3c9d84a1	0.019228281
31	0xbd286fd3	-0.04112227
32	0x3d753e00	0.05987358
33	0x3b773c72	0.0037725237
34	0xbd9f4fb3	-0.07778873
35	0xbc2a77f4	-0.010404576
36	0x3c4715cd	0.012151194
37	0x3d2cef0e	0.042220168
38	0x3d6534ad	0.05595844
39	0x3cbcee40	0.023062825
40	0xbba55100	-0.0050450563
41	0x3c072913	0.008249539
42	0xbbfeb970	-0.0077735707
43	0xbcf81e6d	-0.030287946
44	0xbc984e3b	-0.01859199
45	0xbd45916d	-0.048234392
46	0xbd8e687b	-0.06953522
47	0xbd57752a	-0.05260197
48	0x3d8015e4	0.06254175
49	0x3cb1d5f3	0.021708464
50	0x3d484f42	0.04890371
51	0xbd7c9909	-0.061669383
52	0x3cc5f414	0.024164237
53	0x3c31803c	0.010833796
54	0xbd93b6b9	-0.07212586
55	0x3d098c9e	0.03358137
56	0x3c8bb110	0.017052203
57	0x3c5c4804	0.013444904
58	0xbbe972c0	-0.007124275
59	0x3d2bb328	0.041918904
60	0xbce62327	-0.028092934
61	0xbcb760b2	-0.022384975
62	0xbcf6992b	-0.030102333
63	0x3d4b0317	0.049563494
64	0xbd8ac133	-0.06775131
65	0x3d860a5e	0.06544946
66	0x3cb07040	0.0215379
67	0xbd4fcb42	-0.05073095
68	0x3c1b7dfe	0.009490488
69	0xbd5bd9da	-0.053674556
70	0xbc89be12	-0.016814265
71	0xbcd74dd0	-0.026282221
72	0xbbc99680	-0.006151974
73	0x3cc7741e	0.024347361
74	0xbd51c378	-0.051211804
75	0xbd76ea11	-0.060281817
76	0x3d465461	0.048420314
77	0xbd5c7098	-0.053818315
78	0xbc87f442	-0.016595963
79	0x3d4b7aab	0.049677532
80	0x3cf92a72	0.030415747
81	0xbd1d3393	-0.038379263
82	0x3d1ab48f	0.03776985
83	0x3d854645	0.065075435
84	0x3ca1356f	0.0196788
85	0x3d1a45d6	0.037664257
86	0xbd8968c3	-0.06709435
87	0xbd5c3506	-0.053761505
88	0x3c9692b7	0.018380506
89	0xbd8d5684	-0.06901267
90	0x3c84bb30	0.01620254
91	0xbc963569	-0.018336015
92	0x3c82cc46	0.015966546
93	0x3cb1b188	0.021691099
94	0x3d7bc302	0.06146527
95	0x3d5fab4b	0.054606717
96	0xbd4c3ac1	-0.04986072
97	0x3ccc58d3	0.024944698
98	0xbda2f6c2	-0.079572216
99	0x3c79bc87	0.015242702
100	0x3d76c2eb	0.060244482
101	0x3d23c834	0.03998585
102	0xbd81809a	-0.06323357
103	0xbd95faeb	-0.073232494
104	0xbd4be9b1	-0.049783412
105	0x3d35deba	0.04440186
106	0x3b853559	0.0040651974
107	0x3d18dbec	0.03731911
108	0x3c5cf3a8	0.013485827
109	0xbd19d55c	-0.03755699
110	0x3c0998a3	0.008398208
111	0x3d3ade00	0.045621872
112	0xbd12cb31	-0.03583831
113	0xbc91cb50	-0.017797142
114	0x3d588aed	0.052866865
115	0xbd348aa9	-0.04407755
116	0xbd10607b	-0.03524826
117	0xbc99e9df	-0.018788276
118	0x3cb7b5c8	0.022425547
119	0x3c516dac	0.0127824955
120	0x3c9f440d	0.019441629
121	0xbd128b4e	-0.035777383
122	0x3c953280	0.018212557
123	0xbd9e2a3d	-0.077229
124	0xbd08f007	-0.033432033
125	0x3d416c64	0.04722251
126	0x3d229b5c	0.039698943
127	0xbd66e044	-0.05636622
128	0xbd4e8362	-0.050418265
129	0x3d3ba652	0.045812912
130	0xbd87f549	-0.06638581
131	0xbd8414b9	-0.06449265
132	0xbd4c2f80	-0.049849987
133	0x3d06fd98	0.03295669
134	0x3d30cd28	0.043164402
135	0xbcb81042	-0.02246869
136	0x3d5b9c58	0.053615898
137	0x39157858	0.00014254579
138	0xbd94f8eb	-0.0727404
139	0x3caa5790	0.020793706
140	0xbc5224c9	-0.012826153
141	0xbc70d2f8	-0.014698736
142	0x3b8b8eab	0.0042589507
143	0xbd92c4ca	-0.07166441
144	0xbca9203e	-0.020645257
145	0xbc80fe3a	-0.015746225
146	0x3bb0d492	0.005396434
147	0x3ca89e09	0.02058317
148	0x3d80a645	0.062817134
149	0x3d50271b	0.050818544
150	0xbd2d4d28	-0.04230991
151	0x3ca9f988	0.020748869
152	0x3d55bcfc	0.052182183
153	0x3d3f57c4	0.04671456
154	0xbd7f57ac	-0.06233947
155	0xbd2eefcf	-0.042709168
156	0x3d44c4e1	0.04803932
157	0x3c5407bb	0.012941296
158	0xbd74343a	-0.05962012
159	0xbcaf3d44	-0.021391518
160	0x3d0fda9a	0.035120584
161	0x3d6563f7	0.056003537
162	0x3d65e0e8	0.05612269
163	0xbd8cffbe	-0.068847165
164	0xbd27b85e	-0.04094731
165	0x3cff3870	0.031154841
166	0xbd677cf8	-0.056515664
167	0x3d46bf70	0.048522413
168	0x39ee5828	0.0004546058
169	0xbd01d4f2	-0.03169722
170	0x3cc8cffc	0.024513237
171	0xbd891093	-0.066926144
172	0xbbba045b	-0.0056767887
173	0xbd3e9e3a	-0.046537615
174	0xbcf51723	-0.029918259
175	0xbc882b26	-0.016622137
176	0xbd21ebc2	-0.039531477
177	0x3d64f934	0.05590172
178	0xbd8d2b3d	-0.06893013
179	0xbd575896	-0.052574717
180	0x3cb95bf8	0.022626862
181	0xbd7fcb2c	-0.06244962
182	0x3d2d5fdc	0.042327747
183	0xbd4508ed	-0.048104215
184	0xbd96279b	-0.07331773
185	0x3c0ac397	0.008469484
186	0xbd6e7a37	-0.058222022
187	0xbd359817	-0.044334497
188	0x3d0cc664	0.034368888
189	0xbcde4f12	-0.027137313
190	0x3d17f05a	0.03709445
191	0xbd1a6f23	-0.037703644
192	0x3d0a8cb6	0.0338256
193	0xbd9015ef	-0.070354335
194	0xbd313052	-0.043258972
195	0xbc7d6df0	-0.015468106
196	0xbd910a96	-0.07082097
197	0x3d591512	0.05299861
198	0xbcd811a1	-0.026375594
199	0xbd251174	-0.040299848
200	0x3c55fd00	0.013060808
201	0x3b80b6c0	0.0039280355
202	0x3b8253f0	0.0039772913
203	0x3c3085c0	0.010774076
204	0xbb9b2fc0	-0.004735917
205	0xbd6c15ca	-0.057637967
206	0xbd45082f	-0.048103508
207	0xbba7f230	-0.0051253065
208	0xbd578be7	-0.052623656
209	0x3c44e8f8	0.012018435
210	0xbd5e110c	-0.054215476
211	0x3caae55c	0.02086132
212	0xbd009113	-0.031388354
213	0x3d8539c3	0.06505158
214	0xbd903cf7	-0.07042878
215	0x3cdbf0b0	0.026848167
216	0xbd61b5a4	-0.055104867
217	0xbccfe2e4	-0.025376745
218	0x3cf902b4	0.030396797
219	0x3bfa3c40	0.007636577
220	0x3cffb778	0.031215414
221	0x3c90394c	0.017605446
222	0x3d89b9eb	0.06724914
223	0xbd8b5369	-0.068030186
224	0x3d829a11	0.06377042
225	0xbcd1f586	-0.02562977
226	0xbcad54e2	-0.02115864
227	0xbd3ebbb7	-0.046565738
228	0x3b152380	0.0022756755
229	0x3ac53640	0.0015046075
230	0x3d0dabe2	0.03458775
231	0xbd7329d0	-0.059366047
232	0x3b44aa20	0.003000863
233	0xbd8221af	-0.06354081
234	0xbd2d5aa0	-0.042322755
235	0x3d40e4de	0.047093265
236	0xbb831d40	-0.0040012896
237	0x3d5b2c32	0.053508945
238	0xbd48d270	-0.049028814
239	0x3d3d07f4	0.046150163
240	0x3d2c9cc2	0.042141683
241	0xbd8a0e6a	-0.067410305
242	0x3d3aa714	0.045569494
243	0xbd0047c1	-0.03131843
244	0xbc2a51c4	-0.010395471
245	0xbd2a757b	-0.041615944
246	0x3d5007d8	0.05078873
247	0x3d775116	0.060380064
248	0xbce43712	-0.02785829
249	0x3d82dd45	0.0638986
250	0x38c21800	9.255111e-05
251	0x3cbb1c50	0.022840649
252	0x3cf3084c	0.029667042
253	0xbcc1fa80	-0.023679018
254	0xbd4b3f58	-0.049620956
255	0x3bb5a090	0.005542822

2.bias f4 [500]
0	0xbd7a2144	-0.06106688
1	0xbb6a3ce0	-0.003574185
2	0xbd3034dc	-0.04301916
3	0x3c89ed2a	0.016836721
4	0x3dbcdc52	0.0922171
5	0x3d2c27e8	0.042030245
6	0xbd3e2dd8	-0.04643044
7	0x3c236d65	0.009974812
8	0xbd626036	-0.055267535
9	0x3c2f9eda	0.0107190255
10	0xbc0ae681	-0.008477808
11	0x3d510a26	0.05103507
12	0x3cacb20f	0.021080999
13	0xba80d0a9	-0.000982781
14	0x3d696a3f	0.05698609
15	0xbd1d62e8	-0.038424402
16	0x3d0c27f0	0.034217775
17	0xbd2685b2	-0.040654846
18	0x3c8316f0	0.016002148
19	0xbd8f47f1	-0.069961436
20	0xbcc9d620	-0.024638236
21	0x3bf279e5	0.007399785
22	0xbd5637e2	-0.052299388
23	0xbd461bdc	-0.048366413
24	0x3d80a7e6	0.06282024
25	0x3c0d6582	0.008630158
26	0x3d2f2ce3	0.042767417
27	0x3ca1c892	0.01974896
28	0x3d011751	0.031516377
29	0xbc7c2c7b	-0.015391464
30	0xbd9b2072	-0.07574548
31	0xbb81825e	-0.0039523086
32	0x3d622d7f	0.05521917
33	0xbd949c0b	-0.07256325
34	0x3b761f32	0.0037555215
35	0xbd584392	-0.052798815
36	0x3cd8ba8a	0.026456136
37	0xbd4585f2	-0.048223443
38	0xbb1b6c15	-0.0023715545
39	0x3d551e1a	0.05203066
40	0x3d58652c	0.05283086
41	0xbcb632de	-0.022241052
42	0x3cbd4778	0.023105368
43	0x3be5b020	0.007009521
44	0xbd8916ae	-0.06693779
45	0x3b5a6c0a	0.0033328556
46	0x3d00e983	0.031472694
47	0x3b907369	0.004408289
48	0xbd843243	-0.06454899
49	0x3c456bb7	0.012049607
50	0x3d817b62	0.063223615
51	0x3c891880	0.016735315
52	0x3da580e8	0.080812275
53	0x3d3ba977	0.04581591
54	0xbd4e41c6	-0.050355695
55	0x3af8c81d	0.0018980537
56	0x3d5dad5b	0.054120403
57	0x3c074384	0.008255843
58	0xbbac4c95	-0.0052581527
59	0xbd38dee8	-0.045134455
60	0x3d7a1a26	0.061060093
61	0xbd72c4e3	-0.059269797
62	0xbcb50d4b	-0.022101065
63	0x3d38eb5b	0.045146327
64	0xbd6d07e0	-0.05786884
65	0x3aae4940	0.0013296977
66	0x3c52beeb	0.012862901
67	0xbd262487	-0.04056218
68	0x3d9e0ff3	0.07717886
69	0xbcc06fa6	-0.023490738
70	0xbd4f300e	-0.050582938
71	0xbd205dd1	-0.03915197
72	0x3d0ce552	0.034398384
73	0xbd0754f0	-0.033039987
74	0x3d3d5bc0	0.046230078
75	0x3cfbb17e	0.030724283
76	0xbcdf153f	-0.02723181
77	0x3b96b8c0	0.0045996606
78	0x3d1ffde3	0.039060485
79	0x3d9f635b	0.077826224
80	0x3dbd6202	0.09247209
81	0x3cad0c42	0.021124009
82	0xbcb95070	-0.022621363
83	0x3cd9091a	0.026493598
84	0x3c796e71	0.015224085
85	0x3c90e282	0.017686132
86	0x3b0ea711	0.002176706
87	0xbc7f9a7f	-0.0156008
88	0x3cab51d4	0.020913042
89	0x3b81ff70	0.003967218
90	0xbd31c2c2	-0.043398626
91	0x3cc5e131	0.024155231
92	0x3da0588c	0.07829389
93	0xbd461b12	-0.04836566
94	0x3cbd4b51	0.023107203
95	0xbd4c0f50	-0.04981929
96	0xbc42da41	-0.011892856
97	0x3dcc7cfa	0.09984775
98	0x3d3ac320	0.045596242
99	0xbd237818	-0.039909452
100	0xbdb3265b	-0.0874755
101	0xbc015e99	-0.007896089
102	0xbdb25b86	-0.08708863
103	0xbd74c41c	-0.059757337
104	0xbc141604	-0.009038452
105	0xbcec610b	-0.028854867
106	0xbb5fd120	-0.0034151748
107	0x3d61d5f9	0.0551357
108	0xbd1186ea	-0.035529055
109	0xbc258d10	-0.010104433
110	0x3cab68de	0.020924028
111	0xbd3727d4	-0.044715717
112	0xbcf02b07	-0.029317392
113	0x3de6154f	0.11234533
114	0x3d12b31d	0.035815347
115	0x3d526a62	0.051370986
116	0x3d2acabb	0.041697245
117	0x3cf36060	0.029709041
118	0x3dc8ba0d	0.09801111
119	0x3c2010e8	0.009769656
120	0xbcadeedf	-0.021232067
121	0x3d821190	0.06351006
122	0xbd4c3830	-0.049858272
123	0x39c27db6	0.00037096225
124	0xbd35a774	-0.04434915
125	0xbd3880a2	-0.04504455
126	0x3d38d224	0.04512228
127	0x3ce3d083	0.027809387
128	0xbcf161d2	-0.02946559
129	0x3d25b40a	0.0404549
130	0xbd78000b	-0.060546916
131	0xbd8c0bc4	-0.068381816
132	0x3da94a62	0.082661405
133	0xbcecb751	-0.028896006
134	0xbd8005bc	-0.06251094
135	0x3d66611c	0.056244954
136	0x3d964add	0.07338498
137	0x3da771be	0.081759915
138	0x3b84a078	0.0040474497
139	0x3bedbfce	0.007255531
140	0xbd220166	-0.039552115
141	0x3db11925	0.08647374
142	0x3ba35216	0.0049841506
143	0xbcd3a1c2	-0.025833968
144	0xbca15607	-0.019694341
145	0x3c288b0d	0.010287059
146	0xbd327650	-0.043569863
147	0xbd8be429	-0.068306275
148	0x3dc66542	0.09687282
149	0xbc9b7613	-0.0189772
150	0x3d836d5f	0.06417345
151	0x3d955764	0.07292059
152	0x3d6f5dff	0.05843925
153	0xbd86df7c	-0.06585595
154	0xbca2f05f	-0.019890008
155	0xbd2f074a	-0.04273156
156	0x3d172bba	0.036906935
157	0xbd5a1b04	-0.05324842
158	0x3da4af9c	0.08041307
159	0x3daba470	0.08380973
160	0xbd98cb85	-0.07460693
161	0x3c1dc962	0.009630533
162	0x3c90bd8c	0.017668508
163	0x3d0b6652	0.034033127
164	0xbd70eba0	-0.05881846
165	0xbba03b5f	-0.00488989
166	0xbb373141	-0.0027952942
167	0x3d051f1c	0.03250037
168	0x3c4bb8fc	0.01243424
169	0xbbaab277	-0.005209263
170	0xbcf2dfa8	-0.029647663
171	0x3d36a32b	0.044589203
172	0xbc41f9d0	-0.011839345
173	0x3dc650a2	0.09683348
174	0x3d9a15da	0.07523699
175	0xbc15ef24	-0.009151254
176	0xbcef413d	-0.029205913
177	0x3d9975a4	0.07493141
178	0xbd981552	-0.074259415
179	0xbd697c92	-0.057003565
180	0xbd2c1906	-0.04201605
181	0xbcb66748	-0.022266045
182	0xbd81ed17	-0.063440494
183	0x3bba9ac0	0.005694717
184	0x3d6820a8	0.05667177
185	0x3d5a70c2	0.05333019
186	0x3d9682db	0.073491774
187	0x3c8e4096	0.017364781
188	0xbd7c6d31	-0.06162757
189	0xbd15a629	-0.036535416
190	0x3d9733cc	0.07382926
191	0x3cf2a2f5	0.02961872
192	0xbd22f6e7	-0.039786246
193	0xbc624a4d	-0.01381166
194	0x3d3428ce	0.043984227
195	0x3d1304ea	0.03589336
196	0x3d8fc679	0.070202775
197	0x3d9588bd	0.073014714
198	0xbcbbf75a	-0.022945095
199	0x3dab2f5e	0.08358644
200	0xbcf84fac	-0.030311428
201	0x3c269aa0	0.010168701
202	0x3ca44194	0.020050801
203	0xbd0470c0	-0.03233409
204	0x3c8ca85c	0.017170124
205	0x3c6dc31e	0.014511852
206	0xbc3b1e9c	-0.011420872
207	0xbd8ef2cf	-0.06979906
208	0xbdc7cd17	-0.09755915
209	0x3c906a37	0.017628772
210	0xbcaf50c6	-0.02140082
211	0xbcc1ab35	-0.023641208
212	0x3bf3afbb	0.00743672
213	0x3d822e1f	0.06356453
214	0x3c6b6736	0.014367869
215	0x3d64e4c9	0.05588225
216	0x3ce391b8	0.027779445
217	0x3d12a53f	0.035802122
218	0x3be070d9	0.00684939
219	0x3d77ee11	0.060529772
220	0xbd278c8f	-0.04090553
221	0xbcbb108b	-0.022835037
222	0xbb027efb	-0.0019912112
223	0x3dd54e3e	0.10415314
224	0x3d362d67	0.044476893
225	0x3dd4cc2d	0.10390506
226	0xbd070881	-0.032967094
227	0x3b829090	0.0039845183
228	0xbd6ee6d8	-0.05832562
229	0x3d6b1aae	0.05739849
230	0x3ca94e97	0.020667357
231	0x3d176f72	0.036971517
232	0x3c20568d	0.00978626
233	0x3ceecdbe	0.02915084
234	0xbd33c3f3	-0.043888044
235	0x3d5a1d9b	0.05325089
236	0x3cf1d4b2	0.029520366
237	0x3c036659	0.008020007
238	0xbc5634e8	-0.013074137
239	0xbcf4d3f8	-0.02988623
240	0xbd468fb0	-0.048476875
241	0x3d0225b5	0.03177424
242	0xbcf73bab	-0.03017982
243	0x3b08c47e	0.0020869072
244	0xbce020d4	-0.027359404
245	0xbdd7945d	-0.10526345
246	0xbd642339	-0.055697653
247	0xbcf59452	-0.029977951
248	0x3d9a4268	0.07532197
249	0xbd0d2abc	-0.034464583
250	0x3d1d03dc	0.03833376
251	0xbc604b82	-0.013689877
252	0x3af6ab23	0.0018819313
253	0xbcfad055	-0.030616919
254	0x3ca15f80	0.019698858
255	0xbd2860b2	-0.04110784

4.weight f4 [100, 500]
0	0xbd23add6	-0.039960705
1	0xbd0fac80	-0.03507662
2	0x3d96a0a3	0.07354858
3	0x3d9e0108	0.077150404
4	0xbdb4fd7b	-0.0883741
5	0xbd23447c	-0.039860234
6	0x3c5ffc5c	0.013671007
7	0xbddf7cd5	-0.10912482
8	0x3d8e0c5d	0.06935952
9	0x3dca2edb	0.09872218
10	0xbdd3708a	-0.103241995
11	0xbdb614c3	-0.08890679
12	0xbdae9079	-0.0852365
13	0x3cd130eb	0.025536021
14	0xbdd47d44	-0.10375455
15	0x3d4c65f5	0.04990192
16	0x3cc9818f	0.024597911
17	0xbc6e6184	-0.014549617
18	0xbb4890b9	-0.003060384
19	0x3bc7f3a0	0.0061020404
20	0x3e208ad9	0.15677966
21	0xbdd36a58	-0.10323018
22	0x3d9b33d3	0.07578244
23	0x3d7bf4e4	0.061512843
24	0x3b9b0217	0.0047304737
25	0x3d4a02cf	0.049319085
26	0x3d847a24	0.06468609
27	0x3dc5b3b8	0.09653419
28	0xbcc01ecf	-0.02345219
29	0x3cc5ceaa	0.024146397
30	0x3d2d5c63	0.042324435
31	0x3be367c5	0.0069398605
32	0xbdc37a66	-0.0954483
33	0x3c8f18b4	0.017467834
34	0x3ddda110	0.10821736
35	0xbcde32be	-0.027123805
36	0x3cdc9a66	0.026929092
37	0x3dc208a5	0.09474305
38	0x3d997a06	0.07493977
39	0x3d5fe366	0.054660223
40	0x3ce65fca	0.028121848
41	0x3b5eb870	0.0033984445
42	0xbd09a731	-0.03360671
43	0x3cb916ce	0.022593882
44	0xbd218e06	-0.039442085
45	0x3d4f08b0	0.050545394
46	0xbd2fbd23	-0.042904984
47	0xbdf405f0	-0.11915195
48	0xbcda1606	-0.02662183
49	0x3dc2f1c9	0.09518773
50	0xbd30334e	-0.043017678
51	0x3d611ba6	0.05495801
52	0x3c02c158	0.007980667
53	0x3df2907e	0.11843966
54	0x3df8735d	0.12131379
55	0xbe13d567	-0.14436875
56	0xbc09b7ce	-0.008405639
57	0x3dd13a1d	0.10216162
58	0x3dd5f66f	0.10447394
59	0xbcf73346	-0.030175816
60	0x3cb11e22	0.021620814
61	0x3ce99bf3	0.028516745
62	0xbd46a880	-0.048500538
63	0x3e0a418f	0.13501571
64	0x3d19fea3	0.037596356
65	0x3c91f6c6	0.017817866
66	0xbd4f8408	-0.050663024
67	0x3c3ab8d0	0.011396602
68	0xbe0cc3be	-0.13746545
69	0x3b29e930	0.0025926344
70	0xbc2815a8	-0.0102590695
71	0x3cf4284a	0.029804368
72	0x39bca200	0.00035978854
73	0xba8c0400	-0.0010682344
74	0xba131bc0	-0.000561174
75	0xbd1b45ea	-0.037908472
76	0xbe0cbad0	-0.13743138
77	0x3b5e6750	0.003393609
78	0x3d291355	0.041278202
79	0x3d67947e	0.056538098
80	0xbe1f0a9a	-0.15531388
81	0xbdb635a8	-0.08896953
82	0xbcdf9309	-0.027291792
83	0x3de8f5e6	0.113750264
84	0x3e0fbe83	0.14037518
85	0xbd8ad0ab	-0.067780815
86	0x3daeba88	0.08531672
87	0xbd8ab440	-0.06772661
88	0xbb6273f0	-0.0034553967
89	0x3d595f57	0.05306944
90	0xbd20a7b6	-0.03922244
91	0xbb8d5986	-0.0043136505
92	0xbdf691b6	-0.12039511
93	0xbcd91c89	-0.026502864
94	0xbcab3370	-0.02089855
95	0x3db657d2	0.08903469
96	0x3d89b168	0.06723291
97	0xbd6a7d8a	-0.05724863
98	0x3b47d1d0	0.0030490048
99	0xbcaa6e5f	-0.020804582
100	0x3e1e611b	0.1546673
101	0xb9a49782	-0.000313934
102	0x3ba357a4	0.004984813
103	0xbcd5c850	-0.026096493
104	0xbbce5138	-0.006296303
105	0xbd95826d	-0.07300267
106	0xbcb41c90	-0.021986276
107	0x3d28f314	0.041247442
108	0xbdaf03b9	-0.08545632
109	0x3dc9ed29	0.09859688
110	0x3d5346c9	0.051581178
111	0x3d36c5cc	0.044622228
112	0xbd9db955	-0.07701365
113	0x3d56bb2f	0.052424606
114	0xbc9bd622	-0.019023005
115	0xbc5cf8ba	-0.013487035
116	0x3b9520c3	0.0045510246
117	0x3df65b66	0.120291516
118	0xbb9599fb	-0.004565475
119	0x3da1d649	0.079022
120	0x3dee017d	0.116213776
121	0xbd2be049	-0.041961942
122	0x397a9900	0.00023898855
123	0xbdbe6621	-0.09296823
124	0xbc1ea568	-0.009682991
125	0x3dac3a3c	0.08409545
126	0x3d246357	0.0401338
127	0x3c378117	0.011200211
128	0x3d8cafaa	0.06869443
129	0x3cb6ed3e	0.022329923
130	0xbc95632e	-0.01823577
131	0xbcebc299	-0.028779315
132	0xbdf7ffc4	-0.1210933
133	0x3d6a388e	0.05718284
134	0x3d9db465	0.07700423
135	0x3d985cb7	0.07439559
136	0xbd66cc2f	-0.05634707
137	0xbd84e843	-0.06489613
138	0x3c0026ce	0.007821752
139	0xbc179f76	-0.009254327
140	0xbb2b4578	-0.0026133936
141	0xbdbca1b0	-0.09210527
142	0xbcb87e00	-0.022521019
143	0xbdafc8d6	-0.08583228
144	0x3dca2321	0.098699816
145	0xbde801a7	-0.1132844
146	0xbcefe620	-0.029284537
147	0x3dc76855	0.09736697
148	0xbd295e39	-0.041349623
149	0x3d711dbe	0.058866255
150	0xbb4f45e9	-0.0031627363
151	0x3da24b63	0.07924535
152	0xbdc428b0	-0.09578073
153	0x3c2d74c4	0.010586921
154	0xbd5b2298	-0.053499788
155	0x3d2fa99b	0.042886358
156	0x3dde4b52	0.1085421
157	0x3e1aeff7	0.15130602
158	0xbdb5a2f2	-0.0886897
159	0xbdeb7a66	-0.11497955
160	0x3e210b06	0.15726861
161	0xbdb0fcaa	-0.08641942
162	0x3d4b4c87	0.04963353
163	0x3dfa1de3	0.12212732
164	0xbd045a9e	-0.03231298
165	0x3cf3d83a	0.02976619
166	0xbdaa5f2e	-0.08318935
167	0xbd08a50f	-0.033360537
168	0xbc094b3f	-0.0083797565
169	0xbc401b89	-0.011725315
170	0xbd2db7b0	-0.042411506
171	0x3e0e00f5	0.13867553
172	0x3d9910ce	0.07473908
173	0xbc94468e	-0.01810005
174	0xbd3f1e89	-0.04665998
175	0x3d228d57	0.039685573
176	0x3c97105c	0.018440418
177	0xbd3f0ed3	-0.046644997
178	0x3e0875e8	0.13326228
179	0xbcb6e967	-0.022328092
180	0x3d94e18f	0.072695844
181	0x3c226dc4	0.0099138655
182	0xbad77660	-0.0016438477
183	0xbce416ab	-0.02784284
184	0xbe172c5e	-0.14763018
185	0x3d1b1827	0.03786483
186	0x3ceac50d	0.028658414
187	0xbcdf69d9	-0.027272152
188	0xbcf44750	-0.02981916
189	0xbd56a3c3	-0.05240227
190	0x3d834e80	0.06411457
191	0xbd9725ba	-0.07380243
192	0x3d8209f6	0.06349556
193	0x3dc866a2	0.09785201
194	0xbda98211	-0.08276761
195	0x3dcf868d	0.101330854
196	0xbdf7d758	-0.121016204
197	0xbe197bc2	-0.14988616
198	0x3e047b3a	0.12937632
199	0xbd033e80	-0.032042027
200	0x3dba9b3f	0.09111642
201	0x3b5ae270	0.0033399127
202	0x3dae9e95	0.08526341
203	0x3dc626e3	0.09675386
204	0xbd0865a0	-0.033300042
205	0xbdf7013a	-0.12060781
206	0x3dcd44dd	0.100229
207	0xbd357abe	-0.04430651
208	0x3def9493	0.1169826
209	0xbdbd4248	-0.09241158
210	0x3cee7666	0.029109191
211	0x3dfe1718	0.124067485
212	0xbd0d47c1	-0.034492258
213	0xbcb5854f	-0.022158293
214	0xbb3b3d94	-0.002857064
215	0x3c1d50f8	0.009601824
216	0xbda7b5de	-0.08188985
217	0xbda8d018	-0.08242816
218	0x3cec4dea	0.028845746
219	0x3d14c52e	0.036320858
220	0xbcb2ca5a	-0.021825004
221	0x3c8e0f61	0.017341318
222	0x3cb3efd6	0.021964949
223	0xbd9da33c	-0.0769715
224	0x3d311045	0.043228406
225	0x3cc055e0	0.023478448
226	0x3bbedbb1	0.005824529
227	0x3ca803c2	0.020509604
228	0xbd24789a	-0.040154077
229	0x3d952d99	0.07284088
230	0x3d76a1e3	0.06021298
231	0x3d357f9f	0.044311162
232	0xbcfc09fa	-0.030766476
233	0x3dda0554	0.106455475
234	0x3c2b1629	0.010442295
235	0xbd02f5d9	-0.03197274
236	0x3d495f79	0.049163315
237	0xbcfe8c77	-0.031072838
238	0xbd03fc09	-0.03222278
239	0x3d36fdfb	0.04467581
240	0x3da9e01a	0.08294697
241	0x3b9f120d	0.0048544467
242	0xbd36cc5d	-0.04462849
243	0x3d5396ee	0.05165761
244	0xbdb7cb42	-0.08974315
245	0x3d9cad5e	0.07650255
246	0xbc766786	-0.01503933
247	0xbda2bc25	-0.07946042
248	0xbe00d557	-0.12581383
249	0x3d9bf5c5	0.07615236
250	0x3d44a2f6	0.048006974
251	0x3d4fbfda	0.050720073
252	0x3d927d1c	0.07152769
253	0xbdae44ce	-0.08509217
254	0x3cbc0d2c	0.0229555
255	0x3dcf2067	0.10113602

4.bias f4 [100]
0	0xbcd73b86	-0.0262735
1	0xbd4136cc	-0.0471714
2	0x3b4a46c2	0.003086493
3	0xbc5d00c4	-0.013488952
4	0xbcbc1767	-0.022960378
5	0xbc58af4b	-0.013225387
6	0x3d2c9fb7	0.042144503
7	0x3d2dc693	0.042425703
8	0x3c94d8b0	0.01816973
9	0x3d03e794	0.032203272
10	0xbd34ea0e	-0.044168524
11	0x3b38bc94	0.0028188573
12	0x3ae3cc3f	0.0017379596
13	0x3cf0e977	0.0294082
14	0x3da873aa	0.08225186
15	0x3d69c9d1	0.057077233
16	0x3d0ec76f	0.034858163
17	0x3ca4b3e2	0.020105306
18	0x3c5165cd	0.012780619
19	0x3d352c2a	0.04423157
20	0xbc285886	-0.010275012
21	0x3d7688db	0.06018911
22	0x3cf160db	0.02946513
23	0x3d85b1d8	0.06528062
24	0xbcc51ef2	-0.024062607
25	0x3ccbb81a	0.02486806
26	0xbd137de1	-0.03600872
27	0x3d0c5338	0.03425905
28	0x3cfc447c	0.030794375
29	0x3d634b27	0.055491593
30	0x3c97125a	0.018441368
31	0x3da4bedb	0.08044215
32	0x3d2aa506	0.041661285
33	0xbd1d830a	-0.038455047
34	0x3c857ddb	0.016295364
35	0x3bc5da1a	0.0060379626
36	0xbd175f5c	-0.036956176
37	0x3ce49ce6	0.027906846
38	0x3b516d73	0.0031956106
39	0xbd11d9ea	-0.03560821
40	0xbd19a9f0	-0.03751558
41	0x3d9dccba	0.07705064
42	0x3db72232	0.08942069
43	0x3daecf1e	0.08535598
44	0x3c6d149b	0.014470245
45	0x3c87271c	0.016498141
46	0x3d6081d5	0.054811317
47	0xbd215d3a	-0.03939555
48	0xbc9472ab	-0.018121084
49	0xb7bd10ea	-2.2538432e-05
50	0x3cecdd96	0.028914254
51	0x3daa9862	0.08329846
52	0xbc98fd0b	-0.018675348
53	0xbcfb51de	-0.030678686
54	0x3d3e7d12	0.046505995
55	0xbcf7907c	-0.030220263
56	0x3d0cb7a6	0.03435483
57	0x3d4c91c5	0.049943704
58	0x3d508820	0.05091107
59	0xbc137d38	-0.009002022
60	0xbce3b646	-0.027796876
61	0xbc029386	-0.007969743
62	0xbd4fb845	-0.050712842
63	0xbbeb3778	-0.0071782432
64	0x3da585df	0.080821745
65	0xbc98182c	-0.018566214
66	0x3c0d35eb	0.008618812
67	0xbca1f3fd	-0.019769663
68	0xbc123fb4	-0.008926321
69	0x3c410c8c	0.011782777
70	0x3d05d113	0.03267009
71	0x3d90b2ea	0.07065375
72	0x3d684e45	0.05671527
73	0xbd2e9c81	-0.042629723
74	0xbc210f47	-0.009830303
75	0x3a6de9ae	0.00090756535
76	0x3d8762ac	0.06610617
77	0xbccf4117	-0.025299592
78	0xbc83698e	-0.016041543
79	0xbb8aa2cb	-0.004230832
80	0x3c8cc510	0.01718381
81	0xbd2b0385	-0.041751403
82	0x3cbb679b	0.022876551
83	0x3d1004da	0.035160877
84	0x3d5185e6	0.051153086
85	0x3db0ceeb	0.086332165
86	0x3c9875ba	0.018610824
87	0x3ce01192	0.027352128
88	0x3d8bad7c	0.06820199
89	0x3d1117f6	0.03542324
90	0xbb1cd3c2	-0.0023929928
91	0x3cba9bd2	0.022779379
92	0x3dad3cdc	0.08458874
93	0xbd2f8b98	-0.042857736
94	0xbcfb92f1	-0.030709716
95	0x3cf6c0be	0.030121204
96	0x3d396e49	0.04527119
97	0x3d327767	0.043570902
98	0x3cd2fe5c	0.025756054
99	0x3d52cc7c	0.051464543

6.weight f4 [2, 100]
0	0xbd484081	-0.04888964
1	0x3c264af9	0.010149711
2	0xbd3f9e75	-0.046781976
3	0xbd91e388	-0.07123476
4	0xbd638ca4	-0.055554047
5	0xbdb354b0	-0.08756387
6	0xbdaa6624	-0.08320263
7	0x3dc33cef	0.095331065
8	0xbdb50be1	-0.08840156
9	0x3cd04815	0.025424996
10	0x3da40c37	0.08010142
11	0xbda481bf	-0.080325596
12	0xbd5f2f09	-0.054488216
13	0xbca53b1a	-0.020169783
14	0x3dc8aaea	0.09798224
15	0x3c817e64	0.015807338
16	0x3d907ceb	0.07055076
17	0x3dc17685	0.09446434
18	0xbdad9672	-0.08475961
19	0x3dc2a011	0.095031865
20	0xbc7fc909	-0.015611895
21	0x3dc729cc	0.09724769
22	0xbb2de3c0	-0.0026533455
23	0x3de6916a	0.11258204
24	0x3d187b42	0.037226923
25	0xbcd83408	-0.026391998
26	0x3d7fff7e	0.062499516
27	0xbd4ef33c	-0.050524935
28	0x3d609f1a	0.05483923
29	0x3d8bd4ce	0.06827699
30	0x3d26ad5f	0.040692683
31	0x3cb1f2fe	0.021722313
32	0xbd1864a3	-0.03720535
33	0x3d60f79a	0.05492363
34	0x3bb9750a	0.005659704
35	0xbd017a30	-0.031610668
36	0xbd03083b	-0.03199027
37	0x3c05a8e8	0.008157946
38	0x3e10cd77	0.14140879
39	0xbd8d2eda	-0.06893702
40	0xbd0996c0	-0.033591032
41	0xbc076a3b	-0.008265073
42	0x3de00b70	0.109396815
43	0x3dd5091f	0.1040213
44	0x3e01f00a	0.12689224
45	0x3dd9ae58	0.106289566
46	0x3e058a56	0.13041052
47	0xbd9e3315	-0.07724587
48	0x3d7867e9	0.06064597
49	0xbce7f5a7	-0.028315378
50	0x3d9602eb	0.07324775
51	0x3d8cfbcd	0.06883965
52	0xbd10b606	-0.03532984
53	0x3ca196af	0.019725172
54	0x3de2d85d	0.11076424
55	0xbd37a1ad	-0.04483192
56	0xbd03c35f	-0.032168742
57	0x3c7fca80	0.015612245
58	0x3d920938	0.071306646
59	0x3db796d0	0.08964312
60	0x3cf2fb64	0.029660888
61	0xbdac8de7	-0.08425503
62	0xbca67ff3	-0.020324683
63	0xbc9b5398	-0.018960759
64	0x3df62dce	0.12020455
65	0xbd8a6296	-0.06757085
66	0xbd486b43	-0.048930418
67	0x3d17c7a1	0.037055615
68	0x3d9d0f67	0.076689534
69	0xbc16f6e8	-0.0092141405
70	0x3c990ceb	0.018682918
71	0x3d66facf	0.056391533
72	0x3e1df7fa	0.15426627
73	0xbd58a87d	-0.052895058
74	0xbdb503f1	-0.088386424
75	0x3d9ef3c5	0.07761339
76	0x3d30189b	0.042992216
77	0x3c50d607	0.012746341
78	0xbcbacd68	-0.022803023
79	0x3c763270	0.015026674
80	0xbd88a053	-0.066712044
81	0xbd303b27	-0.043025162
82	0x3e1dc499	0.15407027
83	0x3e0a4ea4	0.13506562
84	0x3d3e47de	0.046455257
85	0x3e15a40e	0.14613363
86	0x3d9d628d	0.07684813
87	0xbd9fd298	-0.078038394
88	0x3de9299c	0.113848895
89	0x3e18473c	0.14870924
90	0xbcb0f828	-0.021602705
91	0xbcc8e5c8	-0.02452363
92	0x3e07de20	0.13268328
93	0xbda62ccd	-0.08114014
94	0xbda2adc3	-0.07943299
95	0xbda114ae	-0.078652725
96	0x3e09d07d	0.13458438
97	0xbd1d566d	-0.0384125
98	0x3c909640	0.01764977
99	0xbc355b87	-0.011069185
100	0xbe4d8c3f	-0.20073031
101	0xbca3c471	-0.019991131
102	0xbe59ddbf	-0.21275996
103	0xbe0e84bc	-0.13917822
104	0x3c647a80	0.013945222
105	0xbe1ccd85	-0.15312774
106	0xbe369a9e	-0.1783242
107	0xbbffe6d9	-0.0078095016
108	0x3db25d28	0.087091744
109	0x3e1b54a7	0.15169011
110	0x3d9a2081	0.07525731
111	0xbd0dad4c	-0.034589097
112	0x3d7a3c5d	0.061092723
113	0xbdadf9b8	-0.08494896
114	0x3d2e2055	0.042511303
115	0x3dd7ce80	0.105374336
116	0xbc4d0067	-0.012512303
117	0x3d1d6d1b	0.03843413
118	0xbe48ab90	-0.19596696
119	0x3dc7e3a3	0.09760215
120	0xbd02dfcc	-0.03195171
121	0x3e07c1a0	0.13257456
122	0x3bab989f	0.0052366997
123	0x3e01659d	0.12636419
124	0xbda2ab3e	-0.07942818
125	0xbc613eb8	-0.0137478635
126	0xbc5d692f	-0.013513847
127	0xbe5c44fe	-0.21510693
128	0xbe2e541e	-0.17024276
129	0x3dc8f95b	0.09813186
130	0x3d4c28c7	0.049843576
131	0x3e0225cd	0.12709732
132	0xbe5f4845	-0.21804912
133	0x3bac97b5	0.0052671083
134	0xbd085988	-0.03328851
135	0x3de76df6	0.1130027
136	0x3c948aca	0.018132586
137	0xbb9ab3f2	-0.004721158
138	0x3db5775f	0.08860659
139	0xbe58a220	-0.21155596
140	0x3d55dcce	0.05221253
141	0x3d7173b2	0.058948226
142	0x3dc57e83	0.09643271
143	0x3e15d806	0.14633188
144	0x3db8742d	0.09006534
145	0xbc84ce49	-0.016211646
146	0xbcafa9a8	-0.021443203
147	0x3d5d470a	0.054022826
148	0xbe5c5506	-0.21516809
149	0xbd8d3688	-0.06895167
150	0xbe1b732f	-0.15180658
151	0x3e05110d	0.12994786
152	0x3c6784d4	0.01413079
153	0xbd7a8a33	-0.061166953
154	0x3e21521e	0.15753981
155	0x3c433e57	0.011916718
156	0xbe518a1c	-0.20462841
157	0x3e04a7c5	0.12954624
158	0x3e12c6d6	0.14333662
159	0xbd53faf8	-0.051753014
160	0xbe0a4376	-0.13502297
161	0x3ca402b9	0.02002083
162	0x3da1df93	0.079039715
163	0x3db6459f	0.08899998
164	0x3e17c9e0	0.14823103
165	0xbd6b8fbe	-0.05751013
166	0xbe56359b	-0.20918886
167	0x3da0e9d3	0.078570984
168	0xbd36d159	-0.044633243
169	0xbd0aca50	-0.033884346
170	0x3e13fad7	0.14451157
171	0x3dde27ab	0.1084741
172	0x3ded235e	0.115790114
173	0x3d039167	0.03212109
174	0xbe22be8a	-0.15892997
175	0xbe3d5a2a	-0.18491426
176	0x3dc418ed	0.09575067
177	0xbe387dd0	-0.18016744
178	0x3c148b18	0.009066366
179	0x3ccdd6fd	0.025126928
180	0x3caefa2a	0.021359522
181	0x3d35c48e	0.044376902
182	0x3d9f6fc8	0.077849925
183	0xbd967afe	-0.07347678
184	0x3de70378	0.112799585
185	0x3d823e60	0.06359553
186	0x3c162080	0.009163022
187	0xbe1e85d3	-0.15480737
188	0x3e0de48d	0.13856716
189	0x3d9a6ad0	0.07539904
190	0x3d2c0aab	0.04200236
191	0xbe33e7b9	-0.17568864
192	0x3ded2e91	0.115811475
193	0xbe32256e	-0.17397091
194	0xbe5d1fcd	-0.21594162
195	0xbe47baff	-0.19504927
196	0x3de7d1e8	0.11319333
197	0x3dac89f1	0.08424748
198	0x3c734df8	0.014850132
199	0x3e03a644	0.12856394
