flappy_bird_dqn-main/my_model.ckpt (torch, 610767 bytes, 7 tensors)

0.weight f4 [200, 5]
000000 97 22 ce be 3a d8 d6 3e ae cd 42 3e 88 50 c2 bd
       -0.40260765 0.41961843 0.19023773 -0.09488016
000010 d4 00 5e be 01 c3 d0 be 70 c0 65 3d ee 85 88 3e
       -0.21680003 -0.40773776 0.056091726 0.2666468
000020 94 32 e2 bd fa 30 07 be c6 13 28 be 50 a9 23 3e
       -0.11044803 -0.13202277 -0.16413793 0.15982556
000030 93 46 90 be 50 bc 59 3d 96 d8 9e be cb b7 71 3e
       -0.28178844 0.053158104 -0.31024617 0.23605268
000040 a9 9c d7 3e ac e3 52 3e 4c e9 21 bd f8 9d 8c be
       0.4211171 0.20594662 -0.03952913 -0.2746427
000050 e7 b2 84 be a5 01 48 3e d5 48 4e 3d 7f a2 37 3d
       -0.25917742 0.19531877 0.050362427 0.044832703
000060 e9 4e 93 3d 9a ec d6 be aa f9 73 be 8d 00 c9 3e
       0.07192785 -0.41977388 -0.23825708 0.39258233
000070 55 74 60 3e 87 f0 24 be bd 76 11 3f 8c 65 96 3e
       0.21919377 -0.16107379 0.56821805 0.2937435
000080 29 08 c5 3c 50 b7 54 bd 19 11 10 3d f8 6c 36 3e
       0.024051743 -0.051932633 0.035172556 0.17815006
000090 40 27 b5 3d 99 0b ca be 38 38 94 3e a3 ac ba be
       0.08845377 -0.39461973 0.28949142 -0.36459836
0000a0 db 50 af 3e 28 b2 a4 bd 09 1f 6d 3d c9 2a 76 3e
       0.34241375 -0.08041793 0.057890926 0.24039759
0000b0 be bf 7b bd ab da 7a be 53 30 21 bd 25 f4 38 3e
       -0.061462156 -0.24497478 -0.039352726 0.18061884
0000c0 c9 02 e1 be ec 9b db 3d 68 1b 24 3f 82 36 90 bc
       -0.43947437 0.10723099 0.6410432 -0.017604116
0000d0 92 31 96 3d 0d 83 23 3e 09 17 e0 be 0c 8e 33 bf
       0.073336735 0.1596796 -0.43767574 -0.7013862
0000e0 a6 c1 12 3e a3 3c 2d bb 1a c3 76 3d 84 93 1d 3e
       0.14331684 -0.0026433847 0.060244657 0.15388304
0000f0 b5 46 1c be 6b 16 a6 3c 89 db 01 3e f6 6f 07 be
       -0.15261348 0.020274362 0.12681402 -0.13226303
000100 44 2f f4 3d 27 17 20 3f 8e cc de be c1 46 70 be
       0.11923078 0.6253533 -0.43515438 -0.2346449
000110 cf 12 e6 3e 7f 84 a3 bd 5a ff ce be 64 1f c2 be
       0.44936225 -0.07984256 -0.40429193 -0.37914574
000120 42 31 da be b3 c1 fb bd ee ab d1 3e ec f1 bb bc
       -0.42615706 -0.122928046 0.40951484 -0.022942506
000130 91 6c d9 3e 80 df 2a be 19 ff 64 bd 85 f8 a6 3e
       0.42465642 -0.16686821 -0.055907343 0.3261148
000140 b4 89 d5 bc cc 32 c0 3e f8 2f 7f 3e 08 3b 55 be
       -0.026066639 0.37538755 0.24920642 -0.208233
000150 da 79 d1 3d 18 7f 1b 3f d6 50 15 bc 2c 72 3b be
       0.102283195 0.60740805 -0.009113511 -0.18305272
000160 cd 74 3d 3e 62 24 47 bd af 31 ed 3e dd f1 cd 3e
       0.18501587 -0.04861868 0.46326968 0.4022359
000170 7d e2 0d be 94 19 de 3e 80 42 3b 3e 8a 36 2c bf
       -0.1385593 0.4337889 0.18287086 -0.6727072
000180 ba bc 05 be 51 c2 b4 3e 2e 02 d7 3d fe 62 6e 3e
       -0.13060275 0.35304502 0.104984626 0.2327995
000190 5b 8a 1a bf ba b5 37 be 05 eb 66 be 8a f3 c4 3e
       -0.60367364 -0.17940417 -0.2255059 0.38467056
0001a0 af f1 8d 3c b1 68 0f 3f 42 36 a8 3e 35 06 69 bd
       0.017327158 0.5601912 0.32853895 -0.056890685
0001b0 b5 b1 84 3e d6 1e ad 3c a7 6d 63 be 0b e0 92 3e
       0.2591683 0.021132868 -0.22209798 0.28686556
0001c0 8a 04 47 3d b6 76 bc 3e 56 6e 27 be ac 96 8e 3e
       0.048588313 0.3680932 -0.16350684 0.2784933
0001d0 b3 e6 50 3e 80 95 a9 3e 72 a7 37 be 40 52 ed bc
       0.20400505 0.33121872 -0.17934969 -0.028969884
0001e0 ee 64 c2 be 2e 53 be 3e 60 2f e1 be 86 53 84 3e
       -0.37967628 0.37172836 -0.43981457 0.25844973
0001f0 fc 4c 8a be 79 d0 1c 3f b5 e3 8a 3d 60 49 85 be
       -0.2701186 0.61255604 0.06781713 -0.26032543
000200 66 21 da 3e 7d 7c 68 3e 8f 36 1b bd e2 9c 5b 3e
       0.42603606 0.22703739 -0.037893828 0.21446565
000210 5d 86 9e bd a5 67 5d 3e 62 35 e8 bd 96 6a 19 bf
       -0.077404715 0.21621569 -0.11338307 -0.5992826
000220 00 8c 80 be c0 33 a6 3e 61 17 b8 be 84 1f 76 be
       -0.25106812 0.32461357 -0.35955337 -0.2403546
000230 65 ba 01 3f 36 80 b7 be b3 d4 6a 3d ee 70 1b be
       0.5067504 -0.35840005 0.057331752 -0.15179798
000240 80 89 b9 bd 9d 8f d0 3e 3d c0 45 be b2 d2 81 be
       -0.09059429 0.40734568 -0.19311614 -0.2535606
000250 e9 2e 8d 3e df 30 81 3d cb 1a 22 bf d2 6b 34 3d
       0.27574852 0.063081495 -0.6332213 0.044048138
000260 2e 51 8f 3e 56 b7 65 be ec 83 24 bd a2 0c 1c 3f
       0.27991623 -0.22433218 -0.040164873 0.60956776
000270 12 fd 09 3d 3b 06 54 3e d9 c7 65 bd a5 4b c5 3e
       0.033688612 0.20705502 -0.056098793 0.38534275
000280 aa ba 20 bf 84 67 a7 3e 98 f1 9f be a8 57 b5 3e
       -0.62784827 0.32696164 -0.3123901 0.3541844
000290 39 75 59 3e 41 7b 1e 3f ea be 49 3e 2e 94 ab 3e
       0.21236123 0.6190682 0.19701734 0.3351149
0002a0 26 48 18 3d b5 48 1a be c0 69 1a bf 77 dd 9f 3d
       0.03717818 -0.15066798 -0.6031761 0.07805913
0002b0 02 aa c9 3e e6 f4 c8 3e 5f 1c c7 bd f0 c9 5d 3e
       0.39387518 0.39249343 -0.09722208 0.21659064
0002c0 a7 65 a9 bd af 7f c3 3e 0c fe bc 3c f2 94 45 be
       -0.08271342 0.38183352 0.023070358 -0.192951
0002d0 d2 39 ad 3e ab 74 e5 3e c0 44 56 be 75 2e f2 3d
       0.33833176 0.44815573 -0.20924664 0.11825267
0002e0 cd 10 0c bf fc 0f 96 3e a9 e9 38 3c 70 82 56 be
       -0.54713136 0.2930907 0.011286178 -0.20948195
0002f0 27 63 9f be 75 0f ac 3e 9d 15 a9 be f6 81 03 3e
       -0.31130335 0.33605543 -0.33024302 0.12842545
000300 e2 39 12 be 58 20 4e 3e db 5c e3 bd 4a f1 c2 3e
       -0.14279893 0.20129526 -0.11101695 0.38074714
000310 00 61 90 3c c0 5f 4d 3c 8c 66 8b bd f4 48 95 be
       0.017624378 0.012535036 -0.06806669 -0.2915722
000320 2d 6a 99 be 67 6a af be cd f2 a5 be 74 90 58 be
       -0.29963818 -0.34260866 -0.32411805 -0.21148854
000330 56 85 b9 bd 76 d7 e9 3d 28 62 88 bd ff 8a 59 3e
       -0.09058635 0.11418049 -0.06659347 0.21244429
000340 9a 22 d9 be f4 72 26 3e 9e 95 f4 3c 74 35 23 be
       -0.4240921 0.16254789 0.0298565 -0.1593836
000350 84 db 81 be 84 fa d6 be ba e1 33 be 82 17 15 3f
       -0.2536279 -0.41988003 -0.17566577 0.58238995
000360 f0 50 19 3d 28 e0 98 3d bc f8 df 3e db f3 5e be
       0.037430704 0.074646294 0.43744457 -0.21772711
000370 27 44 32 be 3f 8f dd 3e 2d 95 87 3e 7e 46 b3 3d
       -0.1740881 0.4327335 0.26481 0.0875368
000380 81 5f bd 3d 8e b9 0d 3f f7 7d 8e be be e5 dc bd
       0.092467315 0.5536126 -0.2783048 -0.10786007
000390 dd 5e b9 bd 0c ef 65 3e 90 72 32 3f a4 41 27 bd
       -0.09051297 0.2245447 0.6970606 -0.040834084
0003a0 da 8e 64 3e 95 b3 25 3e 32 6c 96 be b6 49 12 3f
       0.22320119 0.16181786 -0.2937942 0.57143724
0003b0 36 93 d2 be 22 f8 45 3e bb 0c 0e 3e 51 c2 95 be
       -0.41127938 0.19332936 0.13872044 -0.29249814
0003c0 18 21 47 bf 52 44 ba 3b f0 b5 2e 3d aa 4d b0 3d
       -0.7778487 0.005684414 0.042653978 0.08608563
0003d0 9b 60 36 3e b1 c6 bf be 72 1a ac 3d 8e 67 92 3e
       0.1781029 -0.37456277 0.084034815 0.2859463
0003e0 0d 06 af be ce 2b 80 3e 28 21 60 3d 1b 05 5d 3e
       -0.34184304 0.2503342 0.05471912 0.21583979
0003f0 39 aa c1 3d 8f 20 5a be b1 8e 10 be 7e 4e b5 3e
       0.094562955 -0.21301483 -0.14116932 0.35411447

0.bias f4 [200]
000000 7a e0 97 be d5 82 4a be 94 84 a9 be 13 14 cc be
       -0.2966345 -0.19776471 -0.33108962 -0.39859065
000010 28 8d 4b 3c 21 c0 3c be cf 29 7d 3e 64 14 de bd
       0.012423791 -0.18432666 0.2472298 -0.10843733
000020 24 d2 58 be 79 44 c1 3e da b2 2e 3e 7b e9 f7 bc
       -0.21173912 0.37747553 0.17060414 -0.0302627
000030 fb 5d a6 3d c8 a9 87 be 9c 94 6f 3e 3e 91 bb be
       0.08123394 -0.2649672 0.23396534 -0.36634248
000040 5a ea fd bd 33 99 cc 3e b7 d0 06 3e 83 c6 d6 be
       -0.12398215 0.39960632 0.13165556 -0.41948327
000050 91 0f ad 3e d3 93 3f 3e 5a 06 e8 3c 29 1b d1 bd
       0.3380094 0.18708734 0.028323341 -0.102102585
000060 3e a5 a7 be b7 2f 81 3e 0e 3a 4a be e8 f4 a7 3e
       -0.32743257 0.25231716 -0.19748709 0.32804036
000070 46 90 4c 3e 1a 10 d2 3e 4b 0f fa 3d 6e 82 c3 bc
       0.19976911 0.4102791 0.12209948 -0.023865905
000080 2c 5b d8 3e 42 a3 b3 3e b4 9e b9 be 6f 9c d2 3d
       0.4225706 0.35085493 -0.36253893 0.102837436
000090 ac 25 37 be 5e 53 77 3d e8 ae d0 3c e2 96 9c be
       -0.17885464 0.06038224 0.025474027 -0.30583864
0000a0 75 d9 20 be a6 03 79 be 15 ba 22 bd fc c6 30 be
       -0.15707953 -0.24317798 -0.039728243 -0.17263407
0000b0 a4 7f a8 3e 70 b5 bd be 92 31 1c 3e cc 3c ad 3e
       0.32909882 -0.37052488 0.15253285 0.33835447
0000c0 40 8c c5 bc 2d 42 d1 be 17 3a c0 be 86 b8 88 be
       -0.024114728 -0.408708 -0.3754432 -0.2670328
0000d0 fa 74 c1 be 70 a2 43 3e 66 53 2b be 90 6a e7 3e
       -0.3778456 0.19104934 -0.16731033 0.45198488
0000e0 b0 5b 04 3e 3b 78 aa 3e e9 db 8b 3e 65 60 8b be
       0.12925601 0.33294854 0.27316216 -0.2722198
0000f0 c1 cd 9d 3e 98 6f 80 bd 85 3f a5 be 82 56 6b 3e
       0.3082104 -0.06271285 -0.32275024 0.22982219
000100 54 92 8e 3e 6b 19 72 3e 65 e1 ed 3d ae 11 96 be
       0.27846014 0.23642509 0.11615256 -0.29310364
000110 8f 38 a8 bc b2 9d b2 3e 11 ed 89 3e e9 75 56 3e
       -0.020534782 0.34885937 0.2693868 0.20943417
000120 52 2e b3 3e 12 93 88 3e 8d 4c ac bd 8f f4 84 be
       0.34996277 0.26674706 -0.084130384 -0.25967833
000130 98 b3 ab bd 22 e8 69 3e d6 6a 11 3e 3d f6 b0 be
       -0.08383864 0.22842458 0.14200911 -0.34562865
000140 aa b8 96 be 3d ad 2f be ff bb 47 3e 2e 46 69 be
       -0.29437762 -0.17155929 0.19505309 -0.22780678
000150 2f 84 8f 3e b4 72 c0 3e dd 52 85 be 48 f6 4b 3e
       0.28030536 0.37587512 -0.26039782 0.19918168
000160 ce b4 80 be c2 34 d1 3d c5 6d 52 be 5c f2 ec 3d
       -0.25137943 0.10215141 -0.20549686 0.11569664
000170 bc 07 eb be ce 2a 3e be 31 ca 96 bc 97 9f 93 bd
       -0.45904338 -0.18571016 -0.01840696 -0.07208174
000180 2b 28 ed bd 62 30 17 be 87 ea ce be 04 04 6f 3d
       -0.11579927 -0.1476455 -0.40413305 0.05835344
000190 74 07 99 be 02 31 d2 bb 9d 07 1a 3e 29 f1 70 3e
       -0.298885 -0.0064145336 0.15041967 0.23529495
0001a0 66 78 66 bb cd 20 ce 3e b0 60 17 be 7a e8 ab 3e
       -0.0035166978 0.402594 -0.14782977 0.33575803
0001b0 47 1e d2 3e 31 f0 d1 be 40 01 81 3e 10 0c 24 be
       0.41038725 -0.41003564 0.25196266 -0.16020226
0001c0 7a 34 63 3e f0 22 05 3e 46 2c 33 3c c4 4f 4a 3d
       0.22187987 0.13001609 0.010935849 0.049392477
0001d0 ac 73 1f be 40 82 2e be 93 4e 69 be 30 99 31 3d
       -0.15571469 -0.17041874 -0.2278388 0.04335898
0001e0 7c 04 bd be fd 60 f1 3d f7 1a c3 be cf 90 14 bd
       -0.36917484 0.11786077 -0.3810651 -0.036270913
0001f0 28 be f6 bd c0 82 f3 bc 3d bc 8f be 31 9e 56 be
       -0.12047988 -0.029725432 -0.28073302 -0.20958783
000200 44 5f e4 3e ee 9a c0 be 1e 49 34 be e6 8b f4 bd
       0.44603932 -0.37618202 -0.17606017 -0.11940746
000210 0d 0a d0 3e 6d e5 84 3e 7d c3 af be 3c 81 91 3e
       0.40632668 0.25956288 -0.34328833 0.2841891
000220 4b da cf be 4f bd 12 be 0a 6b b5 3e a3 0a bb be
       -0.40596232 -0.14330028 0.35433227 -0.36531553
000230 2d c2 3a 3e 44 13 f9 3d 93 20 38 3e bb 1c 1d bd
       0.18238135 0.12161878 0.17981176 -0.038357478
000240 ca 6f 90 3e 74 2c fb 3d 98 e7 24 bc 1d 28 ca 3e
       0.28210288 0.12264338 -0.010064982 0.3948373
000250 74 01 7e 3e 69 64 f5 3c 47 60 af be f0 db 49 3d
       0.24805242 0.029955106 -0.3425314 0.049282014
000260 fc 7e 9a be ad 8d d0 be 0f 64 ee bd a1 44 65 bb
       -0.30175006 -0.4073309 -0.116401784 -0.0034983533
000270 d8 6d 37 be fe 3c 43 be 41 c8 dc 3d 0f 6a 70 3d
       -0.17912996 -0.19066235 0.10780383 0.058694895
000280 76 50 55 3e 70 fe 73 3e 80 68 64 3b 23 21 8a 3a
       0.20831475 0.23827529 0.0034852326 0.001053844
000290 a5 10 f1 bd 7a 02 bb bd 92 07 cd 3e 2e dd dc be
       -0.11770753 -0.09131332 0.40044838 -0.43137497
0002a0 8d c3 88 3e 35 5c c4 3e 7e 11 c5 be 4d bb a3 3e
       0.26711693 0.38351598 -0.38489908 0.31978837
0002b0 34 74 cc 3e 83 50 e1 be 9a be 8b be f1 a0 d3 be
       0.39932406 -0.44006738 -0.27293855 -0.41333726
0002c0 49 4b a0 3e 70 1e 6b be 6c 82 26 3e e6 22 6b 3e
       0.31307438 -0.2296083 0.1626069 0.22962531
0002d0 94 8e 78 3d a5 6c 1b bd 1d a6 d3 be 72 3b d9 3e
       0.060682848 -0.03794541 -0.41337672 0.42428166
0002e0 23 5e 1d 3e ad d3 c1 be 04 15 6f 3e 69 6f 45 be
       0.15367942 -0.37856808 0.2334786 -0.19280781
0002f0 9b a4 d4 3d 76 e7 86 3e a4 17 65 bd f4 52 8c bd
       0.103829585 0.26348466 -0.05593075 -0.068517596
000300 ba b3 a2 bd 7b b4 a9 bd 9c e0 3c be af 24 06 3e
       -0.07944436 -0.08286377 -0.18445057 0.13099931
000310 9e b9 da be a9 09 28 bd d8 e2 14 bd e2 72 b5 3e
       -0.4271974 -0.041024838 -0.036349148 0.3543921

2.weight f4 [500, 200]
000000 c8 74 02 3e 10 84 d2 3b a6 b9 06 3d 1e 7d 2e 3e
       0.12739861 0.0064244345 0.032891892 0.17039916
000010 c4 6b ae bc 85 2c 86 bc c7 8f 8c 3d a7 bd 8f bd
       -0.021291621 -0.01637865 0.06863361 -0.07018595
000020 43 16 2a 3d 3d 5d 5f be 93 7f 9b 3d e1 84 0a bc
       0.041525137 -0.21812911 0.07592692 -0.008454532
000030 70 d9 8b be 43 70 52 bd 96 d5 3e bd f2 3b ea 3d
       -0.2731433 -0.051376592 -0.04659041 0.11437215
000040 e2 69 87 3c 6a e7 0b 3c fb 64 5b bd 63 d5 8b 3d
       0.016529981 0.00853906 -0.0535631 0.0682781
000050 ff 50 04 3b ca 3a 87 3d 2b dc 07 3d d3 8d 9f 3d
       0.002018988 0.0660301 0.033168953 0.07790723
000060 87 25 88 bd 3e a4 a1 bd 9e 0c 80 3d f0 82 44 3c
       -0.06647783 -0.07892655 0.062524065 0.011994109
000070 96 3a 01 be 72 40 61 bd f1 24 b6 bb 0b cd 85 bd
       -0.12620005 -0.0549931 -0.005558603 -0.065332495
000080 02 eb e1 bc 2a b4 a4 ba 08 1c 9c 3c d0 df 05 3d
       -0.02757788 -0.00125659 0.019056335 0.032684147
000090 3d 5f 3f 3e 8b ce 89 bd 4c c0 f5 bc 18 16 39 bd
       0.18688674 -0.06728848 -0.02999892 -0.045187086
0000a0 62 ad 3f 3d a7 81 f0 39 00 33 64 bb 7f c5 03 3e
       0.04679621 0.00045872966 -0.0034820437 0.12868308
0000b0 1a 13 99 bd c0 8e d1 ba 7a 5b 1d bc a3 dd 62 bb
       -0.074743465 -0.0015987977 -0.009604329 -0.003461697
0000c0 2b ab 91 3d 2e 08 38 bd 7b 0e 9d bc bb 59 d7 bd
       0.07112726 -0.044929676 -0.019171944 -0.105151616
0000d0 be 6f 47 3d a3 4c 83 bd 15 38 97 bd da 41 84 bd
       0.04869055 -0.06411102 -0.07383744 -0.06457873
0000e0 1e 1c d7 3c b2 0f b6 3c 17 d9 30 3d b2 09 37 bd
       0.026258525 0.022224281 0.043175783 -0.04468698
0000f0 c6 77 04 be d2 d8 fe bb 4e 7e 32 bd 9e 63 30 bd
       -0.12936315 -0.007777312 -0.043577485 -0.043063752
000100 2f 2e 8a 3c 27 ed 8e bd ac f8 7a bd aa ae 0b 3d
       0.016867725 -0.06978827 -0.06127231 0.03410212
000110 4e 23 6a bd 2a 6e 8f bd 94 21 63 bd e5 ad 2d be
       -0.057162575 -0.07003434 -0.055451944 -0.16960867
000120 db 01 02 bd 88 e6 06 3d c3 99 38 bd a7 f4 db 3d
       -0.03174005 0.032934695 -0.045068514 0.10740023
000130 e6 92 19 3e 66 4b d9 3d 1d c3 bd bc 4a b6 4f bd
       0.14997444 0.10610084 -0.023164326 -0.050710954
000140 55 25 db bc ca 68 72 bc 0b be 43 bd 2e d1 62 3d
       -0.0267512 -0.0147954915 -0.04778866 0.05537527
000150 8b e4 0d 3d 1f 27 85 3d 3c ec af bc 8d 90 00 be
       0.034641784 0.065016024 -0.02147495 -0.12555142
000160 b8 cf f9 3c ca 53 1b bd 65 6f 24 bd 09 ef ca 3d
       0.030494556 -0.037921704 -0.040145297 0.099088736
000170 02 0c be 3d 12 ab 64 3d 42 c9 55 bd 46 ce 55 bd
       0.09279634 0.055827208 -0.052193888 -0.05219867
000180 9a c5 1b bc d2 cc 69 3d 26 7e 59 bd bc 24 5a be
       -0.009507561 0.057080097 -0.05309882 -0.21303076
000190 ac 59 ae bd b6 12 23 be 68 84 42 3d 62 6c 51 bd
       -0.08513197 -0.15925106 0.047489554 -0.051128753
0001a0 db f6 d0 3c ee 02 70 3a 95 a2 8c bc 4b fa 78 3c
       0.025508335 0.000915571 -0.017167369 0.015196393
0001b0 13 6b 15 bd ad da 28 bd 2d 58 45 be 90 76 cb 3b
       -0.036479067 -0.04122417 -0.19271918 0.006209202
0001c0 83 8c 0e be f0 f8 fd 3c 91 d7 5b bd 04 17 07 3d
       -0.13920788 0.031002492 -0.053672377 0.032980934
0001d0 b0 01 c1 3c 68 a7 81 bd 60 ed 5d 3d 3b fc 8e 3d
       0.023560375 -0.06330758 0.054181457 0.06981703
0001e0 08 b9 30 bd f7 50 df bd 7d 74 ed 3d 8e 5a 0a 3e
       -0.04314521 -0.10904115 0.11594484 0.13511106
0001f0 4a 2e 0e 3c 99 5b 0b be f0 17 9c 3c 44 c0 9f bd
       0.008678028 -0.1360916 0.019054383 -0.07800344
000200 05 06 ca bd 08 a6 74 3e b5 c0 34 bd 2c 54 31 3d
       -0.098644294 0.23891461 -0.044129092 0.043293163
000210 2b 46 07 be 30 ea 02 3e a5 cb 80 bd 04 ab 84 3c
       -0.1321036 0.12784648 -0.06288842 0.016194828
000220 52 7d 11 3e d4 9d b9 bd da 6b 8e bc 86 79 8d ba
       0.14207962 -0.090633065 -0.017385412 -0.0010793663
000230 4e bb 3b 3d fb 28 f5 3b f5 d8 0b bd ff 01 23 bd
       0.045832925 0.007481692 -0.034142453 -0.039796825
000240 c3 f3 8e bc 34 e6 46 bd a9 4d 15 be bc 75 f1 bc
       -0.017450219 -0.048559383 -0.14580406 -0.029475085
000250 01 74 00 be 7b 51 ae 3d 9b da 5c 3d a8 09 c6 3c
       -0.12544252 0.08511635 0.053919416 0.024174526
000260 88 9e 96 3d a4 95 46 3e 82 a9 45 3a f5 e8 ef bc
       0.07354456 0.19393021 0.0007540212 -0.029285887
000270 2b 05 10 bd 32 57 0e 3d 64 25 04 be bc eb af 3d
       -0.03516118 0.034751125 -0.12904888 0.08589885
000280 6f cd 39 bd c9 a8 89 bd 0c 21 0b 3d d9 db 8d bd
       -0.045361932 -0.06721646 0.033967063 -0.06926698
000290 4a de 9b 3d da 09 6d 3e c0 1b ba bb 70 69 62 3e
       0.07610758 0.2314829 -0.0056795776 0.22110534
0002a0 80 32 0d be 57 6c 6b bd e4 d5 97 bc e1 1f 3f bc
       -0.13788795 -0.057476368 -0.018534608 -0.011665315
0002b0 7b a8 3a bd ac 14 a4 bc 57 72 8f bd 22 96 55 bd
       -0.04557083 -0.020029388 -0.070042305 -0.05214513
0002c0 e8 5e 18 bd 61 74 af 3d ba 63 b9 3d 2f 3f 26 be
       -0.037199885 0.085671194 0.090522245 -0.1623504
0002d0 e2 6b c3 bd 2f 83 51 bd fd ca df 3c 9f d6 10 be
       -0.095420614 -0.051150497 0.027318472 -0.14144371
0002e0 12 0b c9 bd b5 2a aa bb 8f 9b ae bc cd 31 fa bc
       -0.098165646 -0.0051930794 -0.02131441 -0.030541325
0002f0 5e 95 cf 3d cb 70 95 3b e1 21 bd bd 08 a9 d2 bc
       0.101359114 0.004560565 -0.092349775 -0.025715366
000300 1a dc 80 bd f7 ee a6 3d 5d da 64 bd e2 5b 17 bc
       -0.06291981 0.08151048 -0.05587231 -0.009238215
000310 26 16 11 3d 14 d3 88 3d bf b5 6f 3d 89 53 ba 3b
       0.035421513 0.06680885 0.058522936 0.0056862277
000320 2a 4a 47 3d 58 ed 2c bc 60 f2 c0 3b 47 db 68 bd
       0.048654713 -0.010554634 0.0058882684 -0.056849744
000330 2a 7a 5a 3d ce c5 23 3d 48 aa 29 3c 60 11 fe 3c
       0.05333916 0.039983563 0.01035554 0.031014144
000340 08 b4 1e bc ec 62 90 bd 18 8a f1 3c 38 b1 17 bd
       -0.0096864775 -0.07050118 0.029484794 -0.037034243
000350 95 54 8f 3d 8c 06 81 bd 9a 7b 46 bd 80 94 70 bd
       0.069985546 -0.06300077 -0.04845772 -0.05873537
000360 e0 6b 8b 3c 3d 91 4f bd 3b 4f 2e bd a8 cf b6 3c
       0.017019212 -0.05067562 -0.04255603 0.022315815
000370 39 44 82 bd ea 1e 75 bd b6 dc fa bc 40 18 5c bb
       -0.06360669 -0.059843935 -0.030622821 -0.003358379
000380 23 19 85 3d 9a 22 32 3d 0f ab 18 bd 40 5c 41 3b
       0.06498935 0.04349003 -0.03727251 0.0029504448
000390 08 28 30 3d 94 2d 80 3c 78 20 81 bd e0 a7 46 3d
       0.043006927 0.015646733 -0.06305021 0.04849994
0003a0 c0 99 54 3c 18 6a 05 bc 58 9e 4a bd 67 49 1c bd
       0.01297611 -0.0081429705 -0.049467415 -0.03815594
0003b0 60 da b2 3c e8 d4 01 bc 52 6b 57 3d 69 b9 71 bd
       0.021832645 -0.007924296 0.052592583 -0.05901471
0003c0 8a 68 bf bc 52 e3 68 3d 7f 22 70 bd 92 62 55 3d
       -0.023365278 0.056857415 -0.058626648 0.052095957
0003d0 26 16 48 bd 52 6e 71 3d 64 d7 29 3d 52 55 56 bd
       -0.048849247 0.0589431 0.041465178 -0.05232746
0003e0 5c f0 f7 3c b8 b3 0a bc 06 ec 3e 3d ce 73 45 bd
       0.03026598 -0.0084657 0.04661181 -0.048206143
0003f0 a2 21 00 3d 5a 32 70 3d 0e f1 67 3d 45 9d 8e 3d
       0.031282075 0.05864177 0.056626372 0.069635905

2.bias f4 [500]
000000 c1 8b 41 bc c2 09 c0 bc 1b c4 27 3d 55 d8 28 3d
       -0.011813105 -0.023442153 0.040958505 0.041221935
000010 56 a2 53 3d ef 4d 5d 3c b6 6b 50 bd 4f 73 8d 3b
       0.051668487 0.01350735 -0.05088397 0.0043167244
000020 88 5b 21 bc dd d7 b2 bc ec e9 a0 bd f0 2f b6 3b
       -0.009848483 -0.021831447 -0.07857117 0.005559914
000030 40 b5 a3 bc c8 a8 61 bc 43 f3 3b 3c f9 83 0e 3d
       -0.019983888 -0.013773151 0.011471572 0.034793828
000040 0a 4b 04 3c e3 20 36 3d bc e0 58 3c a2 5e f6 3b
       0.008074531 0.044464957 0.013237175 0.0075186053
000050 3c 6c 07 bd d8 08 2b bc 1f 05 7a 3d 6c 8c bc bc
       -0.033062205 -0.01043912 0.06104004 -0.023016177
000060 4b aa 95 bd 8d 0c 3a bb 9f b0 ba bc 9d 4a 1c bb
       -0.073078714 -0.0028388829 -0.022789298 -0.0023848184
000070 5c fd 82 bd bf 89 f8 3c 00 17 8d bd 65 97 63 3d
       -0.06395981 0.03033912 -0.068891525 0.055564303
000080 9e c0 94 bc ed 43 1d 3d bb 3f a2 3d c2 8f 0a 3b
       -0.018158253 0.038394857 0.07922312 0.0021142815
000090 c8 ce 86 bd 0d 2f 35 bd 75 a8 40 3d 52 0a e9 bc
       -0.06582409 -0.044234324 0.047035653 -0.028447304
0000a0 25 d3 e7 3c d8 8f 8a bd 7b 57 22 3d 1c b5 c4 3c
       0.028298924 -0.06765717 0.03963421 0.02401214
0000b0 bf b1 6d bd 76 b1 95 3c 5d e3 81 bd ba f7 3b bb
       -0.05803084 0.018273097 -0.06342194 -0.0028681592
0000c0 5e 38 9e bc 52 4e 28 3d c9 80 56 3d 70 d1 f5 bb
       -0.019313987 0.041090317 0.052368913 -0.0075017735
0000d0 ca 2b 83 bc 54 32 c7 bb 5e 8e d1 bc bf 8b 34 bd
       -0.016012091 -0.0060789976 -0.025580581 -0.044078585
0000e0 c9 ab e3 bc 45 f5 60 3c 36 f7 4b bd 9a 03 62 bd
       -0.027791874 0.013730352 -0.049796306 -0.055179216
0000f0 cb 2c 50 3d 80 5b 92 3a 28 7b f0 bc 42 f4 51 bd
       0.050823968 0.0011166185 -0.0293556 -0.051258333
000100 8e 8b c2 bd 12 37 e4 3c ae c8 46 3d 44 35 1c 3d
       -0.09499274 0.02785829 0.048531227 0.038136736
000110 60 bc b9 bc 2e 4f 79 bc 22 7b 38 3d 40 fb 40 bb
       -0.022672832 -0.015216632 0.045039304 -0.0029446632
000120 32 bc 80 bc 10 e0 3a 39 9a 49 75 bd bd e6 01 be
       -0.015714739 0.00017821812 -0.059884645 -0.12685676
000130 e3 ad 72 bd 64 ca 90 3c 27 0a 9e bd 30 dd 43 bc
       -0.059247863 0.017674632 -0.0771678 -0.011954591
000140 57 5a 0d 3d 95 4c a0 bc 29 b4 8f bd b7 47 48 3d
       0.034509983 -0.019567767 -0.07016785 0.048896518
000150 d4 6f c5 bc d5 dc 8b 3c aa 87 4f bd 34 11 5e bc
       -0.024101175 0.017073074 -0.05066649 -0.013553906
000160 96 38 ca 3c 44 b3 44 bd 45 87 18 bc 74 be 33 bc
       0.024685185 -0.048022524 -0.0093095945 -0.0109707005
000170 df 9f 96 bd 8e 78 a0 bd ae f4 81 bd aa ce 3f 3d
       -0.07354712 -0.07835494 -0.06345497 0.04682795
000180 84 d6 ef 3c ba 83 c3 3c 30 24 66 3c 4b 41 01 bd
       0.029277094 0.023866523 0.014046714 -0.03155641
000190 25 3b 83 bd 8e 0c 85 3d dd d8 81 3d 47 81 da bc
       -0.06407765 0.06496535 0.063401915 -0.026672972
0001a0 e2 4d 48 bd 5c e5 e8 bc 7b 7d 86 bd 67 67 9f bb
       -0.0489024 -0.02842968 -0.06566902 -0.0048646214
0001b0 b6 13 b7 3d 8d 4d 0b 3d 5e e0 e8 bc 6c 7a 98 3c
       0.089393064 0.034009505 -0.0284273 0.018613063
0001c0 c0 a2 6f bd d8 18 e0 bc d5 a7 38 bd ea c5 14 3d
       -0.05850482 -0.027355596 -0.045081932 0.036321558
0001d0 4c ba 3a 3d 34 66 0b bc 61 24 b3 3c b8 69 91 bd
       0.045587823 -0.008508254 0.021867933 -0.071002424
0001e0 06 7f 41 bc a4 03 44 3d e8 0c 4d bd 32 07 0f 3d
       -0.01181007 0.047855034 -0.050061136 0.03491897
0001f0 a3 04 e6 bc 8f 09 f1 3c 99 3e 8d 3a 3d 3d 01 bd
       -0.028078383 0.029423503 0.0010776102 -0.031552542
000200 da f6 13 bd e8 1b 12 3d 35 f0 1a bb b6 27 52 bd
       -0.036124088 0.035671145 -0.002364171 -0.051307403
000210 44 94 92 bd 52 20 2e bc a0 eb 61 bc b8 53 47 bd
       -0.07157186 -0.010627823 -0.0137890875 -0.048663825
000220 18 62 9f bd 03 54 b1 3c 59 7b 57 bd f7 ab 27 bd
       -0.07782382 0.021646505 -0.052607868 -0.040935483
000230 22 ad 3d 3d f3 f3 b8 bc e2 79 d5 bc 20 67 69 3d
       0.04630769 -0.022577262 -0.026059095 0.056983113
000240 6c 21 98 3a e2 d8 91 3c 4c 6e 26 3d 6a e6 77 3d
       0.001160664 0.017803613 0.04063253 0.060522474
000250 f6 a3 4a bd 4b f3 c6 3b 58 0c 55 bc 5b 81 8f bd
       -0.04947277 0.0060714833 -0.013003431 -0.070070945
000260 2a 71 67 3d ee fc 3e 3d 57 84 72 bd 15 8e 85 bd
       0.056504406 0.04662793 -0.05920824 -0.065212406
000270 f7 dd 98 bd 00 d9 e7 3c c0 5a 37 bc 4e cd 91 bc
       -0.074642114 0.028301716 -0.01119107 -0.017798092
000280 4d a9 95 3c 10 8e ce 3b e7 09 8c bb 05 39 71 bd
       0.018269205 0.0063035563 -0.0042736414 -0.05889227
000290 16 f9 15 3d 7f 2a 41 bd 08 29 67 bb 5d db 4b bc
       0.0366145 -0.047159668 -0.003527226 -0.012442437
0002a0 46 44 c4 bc 3a e4 af bc d8 9c 4e bd e4 17 ec 3c
       -0.023958337 -0.021471132 -0.050442547 0.028819986
0002b0 08 ac a5 ba 80 4b 20 3b d7 3c 2f 3d 3d 1f f4 bc
       -0.001263977 0.0024459064 0.04278263 -0.029800052
0002c0 b0 95 d7 3b 87 57 28 bd 6c 00 fa 3c 9b 78 8e ba
       0.0065791234 -0.041099098 0.03051778 -0.0010869683
0002d0 c5 3c 31 bd 3a 97 bd bd fd 88 0f bc 53 72 9d 3d
       -0.043270845 -0.0925736 -0.008760688 0.07687821
0002e0 53 be a0 3d 0f b0 16 bd 10 88 9c bc 03 87 5e 3d
       0.078488015 -0.036788996 -0.019107848 0.054327976
0002f0 ee d0 42 3d e1 71 bf 3c 67 9b 1c 3c 2b 07 88 bd
       0.047562532 0.023369731 0.009558535 -0.06641992
000300 9b b2 60 3d c7 b4 22 3c f1 df 7b 3d 4a 84 f0 b9
       0.05485783 0.009930796 0.061492864 -0.0004587493
000310 5c bf 2b 3d 9d 97 c1 3c 99 6e 9b bd 6c 1d 9b bc
       0.04193054 0.023631865 -0.07589454 -0.018934928
000320 c3 f4 2b 3d 9e bf 71 3d 17 f3 8b bd 94 34 04 3d
       0.04198147 0.05902063 -0.06833475 0.032276705
000330 34 2c 01 bd 44 36 4a 3d 92 68 a1 ba c9 e9 0e bc
       -0.031536296 0.049368158 -0.001231449 -0.008722731
000340 60 f5 82 bd 79 44 5d 3d 27 a1 80 3d c8 08 04 bd
       -0.06394458 0.05402038 0.06280737 -0.032234937
000350 92 4a aa 3d 87 55 d3 bc c6 9c d7 bc f6 07 d8 3d
       0.083150044 -0.025797619 -0.026319873 0.105483934
000360 20 90 28 3d bd a7 85 b9 f3 39 57 3d ca bc a7 bc
       0.041153073 -0.00025492712 0.0525455 -0.020475764
000370 9a 52 69 3d 4c fd 9b ba 64 5e 04 bc 66 b8 3a 3d
       0.05696354 -0.001190105 -0.008079145 0.045586012
000380 0a 51 bd 3c fb 74 59 bd 4c c0 ec bc 70 2e 94 3c
       0.023109931 -0.053090077 -0.028900288 0.01808855
000390 e1 23 8b 3d fc 39 01 3c 0b 08 84 bd b9 14 04 b9
       0.06793953 0.00788736 -0.064468466 -0.00012596221
0003a0 d3 3c 1f bd 58 ac fb bc c4 d1 d5 bb f8 ba 16 3c
       -0.038876366 -0.030721828 -0.00652525 0.00919985
0003b0 a6 c6 94 bd 5d 0b 85 bd 14 69 6b bc 07 33 56 bd
       -0.07264452 -0.06496308 -0.014368314 -0.052294757
0003c0 54 00 ef 3c 1e 14 64 3d 75 09 47 bd 1f 0e f0 bc
       0.029174961 0.055683248 -0.048593003 -0.029303608
0003d0 12 df 96 bd 4e 64 6d bd 4d 6c d9 3a 28 36 13 3d
       -0.07366766 -0.057956986 0.0016588062 0.03594032
0003e0 ff a6 aa 3c b3 d9 45 bd cb 4e 88 3d 67 83 e8 3c
       0.020831583 -0.048303317 0.066556536 0.02838297
0003f0 46 6c 60 bc b4 55 2c bc f0 86 88 bb 83 d1 a1 bd
       -0.013697689 -0.01051848 -0.0041664764 -0.07901289

4.weight f4 [100, 500]
000000 2d bf 13 3b f0 19 6f 3b 02 f7 6f bd c0 c4 01 bc
       0.002254437 0.0036483966 -0.058585174 -0.007920444
000010 52 9e f7 3c c6 92 75 bd 48 0a 62 3c 0c e5 06 3e
       0.03022686 -0.059954427 0.013796397 0.13173312
000020 dc 12 22 3e ac f7 5a bc 80 3d c6 3b 79 ea 8a bc
       0.15827507 -0.013364714 0.006049812 -0.016957508
000030 69 d2 eb bc 28 a3 31 bc 60 b6 dc ba ce 45 22 3d
       -0.028786855 -0.010842122 -0.001683902 0.039617352
000040 de 5c 24 3d d8 d7 12 3d 3e 0d 38 bd 33 f6 be 3b
       0.040127628 0.035850376 -0.044934504 0.005827689
000050 5b f2 b5 3c 7b 6a 32 bd cb 8e 2e 3d 8b a9 09 3d
       0.02221029 -0.04355858 0.042616647 0.033608954
000060 18 f5 a8 bc 03 29 40 bd f3 23 2b 3d 8b 90 01 3e
       -0.020624682 -0.04691411 0.04178233 0.12652795
000070 c1 0f 02 bd 2a 8b d0 3d 1b d8 20 3d 57 e8 68 3c
       -0.031753305 0.101827934 0.039268594 0.01421555
000080 8b 5b 92 3d 3b b0 92 bc 0a 05 4b 3d d2 74 ea bc
       0.07146367 -0.017906299 0.049565352 -0.028620157
000090 c0 7e c4 ba 88 06 75 3c 4a c0 80 3d 06 b6 ca 3c
       -0.0014991388 0.01495517 0.06286676 0.024744999
0000a0 6c 06 8c 3d 66 97 93 3d 5b 4b c5 3c d8 18 7f 3c
       0.068371624 0.07206611 0.024083784 0.015569888
0000b0 53 74 36 3e 3e 65 3d bc a4 d6 12 3d 4a 64 ec bc
       0.17817812 -0.011559783 0.03584923 -0.028856415
0000c0 17 9b 4f bd a8 1a 34 bc f8 10 f7 bd 00 b1 47 bb
       -0.050685015 -0.0109926835 -0.120637834 -0.003047049
0000d0 71 bb 8e 3d 0e dd b2 3d 14 c0 53 bd 09 f2 6f bc
       0.06969345 0.08733569 -0.05169685 -0.014645108
0000e0 cd 39 06 3e 7f b1 2d 3e b6 84 c4 3d 0f 7a 16 bd
       0.13107987 0.1696224 0.09595625 -0.036737498
0000f0 42 2e 1d 3e 87 56 05 3d 58 02 18 bd af 2e d3 3d
       0.15349677 0.032553222 -0.03711161 0.103116386
000100 fb f0 3e 3c 20 48 b7 bd 22 e9 c9 bd b8 33 35 3d
       0.011654134 -0.089493036 -0.0985892 0.044238776
000110 a8 a0 aa bd e3 a4 af bd 17 70 cf 3d 10 11 e9 bb
       -0.08331424 -0.085763715 0.10128801 -0.0071126297
000120 be bc e9 3c 57 5b 96 3d 53 69 89 3d 34 fd 98 bc
       0.028532382 0.073416404 0.06709542 -0.018675424
000130 32 6c 70 3e 32 5e f1 3c f8 f2 89 3b fc 4a 6a 3c
       0.23478773 0.029463861 0.0042098723 0.014300104
000140 98 06 11 be 30 d7 1e 3d 44 d2 1a 3c 74 60 04 be
       -0.14162672 0.038779438 0.009449545 -0.12927419
000150 23 8c c8 3d e0 e6 a5 3c 4f 68 90 bd d9 b2 33 3d
       0.09792354 0.020251691 -0.07051145 0.043871734
000160 8e 12 0d 3e 57 13 b7 3d 04 a0 82 3b 3b c9 de 3d
       0.1377661 0.08939236 0.0039863605 0.108782254
000170 e0 2d 6c 3b 2d 1f 35 bd f4 d4 81 3c 1c b7 86 3c
       0.0036038086 -0.044219185 0.015848614 0.016444735
000180 50 8f 03 bb 74 7b 81 bd 90 98 ef bb 36 f9 c8 bc
       -0.0020074435 -0.06322375 -0.007311888 -0.024532896
000190 e5 40 5b 3b 44 2d f3 3d 0e 28 98 3d 41 87 95 bd
       0.0033455428 0.11873868 0.07429515 -0.07301188
0001a0 6b bb 27 3d ef 3d 2a bd b6 b9 1b bd 1e 0e 9f 3c
       0.04095022 -0.04156297 -0.038018905 0.019415911
0001b0 b1 1f 46 3d 2d 7f 06 3d e8 7f 0d 3c 51 32 e9 3d
       0.048370067 0.032836128 0.008636452 0.1138655
0001c0 60 77 4b bc 0d 07 fc bc 34 cf 1d bc de 82 d6 3d
       -0.012418598 -0.03076508 -0.009631921 0.1047418
0001d0 fc e9 ec bc 6c 20 bc bc ad a5 37 3e 39 36 03 3d
       -0.028920166 -0.022964679 0.17934294 0.032034133
0001e0 8f 84 ed bc 47 52 21 be 78 41 78 bd a8 d2 8b bd
       -0.028993873 -0.15754043 -0.06060931 -0.06827289
0001f0 78 25 b6 3c 93 21 fa bd b0 3d 65 3d 85 97 99 bb
       0.022234663 -0.12213435 0.055967033 -0.004687252
000200 6b 3e 83 bc cb 6c a8 3d 22 00 7a bc ca 5e 96 3c
       -0.016020974 0.082238756 -0.015258821 0.018355746
000210 56 6b b5 3c 0a 0e ef bb 87 ff ff 3c a4 86 0f 3c
       0.022145908 -0.0072953748 0.031249775 0.008760128
000220 00 d9 bc bc 3c 73 2e 3d f4 70 57 3c 75 3f 6b 3d
       -0.023052692 0.042590365 0.013149489 0.057433564
000230 89 50 a5 bc b8 6a 22 be bd 39 15 3d de f9 af bd
       -0.020180004 -0.15861022 0.036432017 -0.0859258
000240 0d 5b 2e bd c1 39 8e 3d b8 ca fd 3d 00 5c 0c 39
       -0.0425673 0.069446094 0.12392181 0.00013385713
000250 d9 ae fe bc 69 6c 95 3d e8 a6 30 3c 4e 45 14 bd
       -0.031089233 0.07296068 0.010781981 -0.036198907
000260 b4 04 98 3c e6 7f 20 bd e8 c3 e6 3c 89 a4 37 bc
       0.01855693 -0.039184473 0.028169587 -0.011208662
000270 55 57 23 3d 45 9a 8d 3c d5 f9 10 3e 4a b0 b4 bc
       0.03987821 0.017285476 0.14157803 -0.022056717
000280 bc 05 19 be 76 fe b4 3c 20 da 43 bc ab 5b 91 bc
       -0.14943594 0.022093993 -0.0119538605 -0.017743906
000290 c8 0c a5 3c e8 23 30 3c 09 58 62 bd 6a 93 83 bc
       0.020147696 0.010750748 -0.055259738 -0.016061503
0002a0 0a 83 94 ba d0 05 9b bc 9c a6 17 bd 82 47 2d 3d
       -0.0011330557 -0.01892367 -0.037024125 0.042304523
0002b0 38 d5 21 bd f2 be bb 3c f8 a1 4d 3b d0 05 ef bc
       -0.039509982 0.022918198 0.0031377058 -0.029177576
0002c0 1a de e4 bd 59 eb 3f 3d a7 91 23 3d 30 8c 87 3c
       -0.11175175 0.046855304 0.039933827 0.016546339
0002d0 23 fc e9 3d b7 24 af 3c ed 22 9d 3d 23 e7 0f be
       0.114250444 0.021379812 0.07672677 -0.14053015
0002e0 e3 ac 92 bd 2a 56 b4 bb 6d 06 93 3d 97 c5 0f 3e
       -0.07161882 -0.0055034356 0.0717896 0.14040218
0002f0 1e b7 e2 3d 74 d5 2a 3d 0d e8 aa 3d c9 f9 c1 bc
       0.11070083 0.04170747 0.083450414 -0.023678677
000300 a9 63 d8 3d db f0 fa 3d f2 74 c8 3c 9c 0e d5 3d
       0.10565884 0.12252971 0.024469826 0.10403177
000310 98 59 3c 3e 10 8a fb 3d ad b3 2b 3d 3c e2 52 bc
       0.18393552 0.12282193 0.0419194 -0.012871321
000320 94 14 1d 3d b6 b6 33 3d 5c 70 13 bd bc 85 44 bd
       0.038349703 0.04387542 -0.035995826 -0.0479791
000330 78 06 c3 bc fb 56 8b bd f4 20 e3 3b f2 e8 9d bd
       -0.023806795 -0.068036996 0.0069314186 -0.077104464
000340 e8 a0 cf bc 43 ac 27 3d 43 99 f7 bc 02 43 d5 3d
       -0.02534528 0.040935766 -0.030224448 0.10413171
000350 ba c9 a8 3b b8 43 14 bc 60 5c 9d bc 16 4e a3 bc
       0.005151001 -0.0090493485 -0.019209087 -0.019934695
000360 51 1f 7b 3a 1e b7 02 bd dc ac 04 3e eb 12 05 3d
       0.00095795566 -0.031912915 0.12956566 0.032488745
000370 1d 93 05 3e e4 cf f0 bd e5 ab a3 3d 20 1f f0 3c
       0.130444 -0.11758402 0.07991771 0.029311717
000380 c1 8a a2 bb 26 18 a7 3c 9b 9f 55 bc c0 ed 9c bb
       -0.0049603884 0.020397257 -0.013038541 -0.004789084
000390 b8 f7 c4 bd 8d 58 8c 3d 80 94 62 bc 32 1d 9f 3c
       -0.09617561 0.06852827 -0.0138293505 0.019423101
0003a0 67 63 2a 3d 98 7d 00 3e 41 36 11 3e b1 7a 38 3d
       0.041598704 0.1254791 0.14180852 0.045038883
0003b0 80 43 06 ba de 2f 16 bd cc 5e 09 3b e7 85 a6 ba
       -0.00051217526 -0.036666743 0.0020961044 -0.0012704701
0003c0 18 a2 e9 3b 04 b4 0b bd d5 9f 4a 3c ed 4f 4b 3d
       0.007129919 -0.034107223 0.0123672085 0.04963677
0003d0 b9 5c a1 bc ff b0 86 bc ca 16 40 bd ff 50 67 bd
       -0.019697534 -0.01644182 -0.046896733 -0.05647373
0003e0 8e ae f9 3d 7e e1 36 bd ad 7f 9f 3d 69 ae 4f 3e
       0.12191497 -0.04464864 0.07788024 0.20281376
0003f0 b9 21 25 bd d8 8e 71 3c 1d f6 33 3d 1a 99 78 3d
       -0.040315364 0.014743529 0.043935884 0.060692884

4.bias f4 [100]
000000 c3 47 9d bc 52 29 c5 3b 74 10 98 bc 09 19 25 bb
       -0.019199258 0.0060168887 -0.018562533 -0.0025191924
000010 49 85 d1 3c 2c b0 4c 3d 10 d5 34 3d d0 37 87 3d
       0.02557625 0.049972698 0.044148505 0.06602442
000020 4e 45 96 bb 00 68 11 38 55 24 12 bd 61 f4 5b 3d
       -0.0045858985 3.466755e-05 -0.03567918 0.053699855
000030 e8 23 d2 bc c3 22 97 bc 58 cc 61 bd c5 78 87 bc
       -0.025651887 -0.018449193 -0.055126518 -0.01653708
000040 55 25 0a bd 59 9a e0 3d 1d 10 15 bd 86 73 55 bc
       -0.03372701 0.109669395 -0.03639232 -0.013028031
000050 d0 c0 e4 3c 18 7e da 3b b2 01 2b bd ba d3 a2 3c
       0.027923971 0.0066678636 -0.041749664 0.01987635
000060 9e a2 12 3d 92 52 0e bd 48 fe ab 3c 72 61 45 3c
       0.035799615 -0.034746714 0.020995274 0.012047159
000070 d2 b5 c2 bb e9 52 2b 3d 06 f7 31 3d bb d9 46 bd
       -0.005942085 0.041827116 0.04344847 -0.048547488
000080 4b 40 ec 3c e1 3f e8 3c bf f9 f9 3c 0c cf a1 b9
       0.028839251 0.028350772 0.030514596 -0.00030862575
000090 9d b5 b9 3c e7 54 3e bc a7 b1 28 3d cb e7 9c bc
       0.022669608 -0.011616922 0.041185047 -0.019153496
0000a0 df 8e 04 3d fe a0 86 bc 29 8e 63 bc 36 5d 08 3d
       0.032362815 -0.016434189 -0.013888874 0.033292018
0000b0 6d 66 1b bd 6d 27 a7 3c 6f 91 92 bc 83 d1 18 bd
       -0.037939478 0.020404542 -0.017891614 -0.03730918
0000c0 a0 6b c3 3c 44 3a 66 b8 b2 30 fa bc 73 bb 07 3d
       0.02385503 -5.4890537e-05 -0.030540798 0.03313775
0000d0 61 92 d5 bc 64 2d 6b 3d a5 27 4d bd ec 3f 02 3d
       -0.026070775 0.057416335 -0.050086636 0.031799242
0000e0 3e b9 b8 bb 79 ae fe 3c 48 96 53 bd 01 86 82 bc
       -0.005637317 0.031089054 -0.05165699 -0.015933039
0000f0 87 c4 5b 3d 7e 37 92 bb 19 67 af 3d 55 14 e5 3c
       0.05365422 -0.0044621816 0.08564586 0.027963797
000100 aa e5 1b 3d 8a e0 a1 3c 17 ab a4 3b 9e f7 0a bd
       0.03806082 0.019760389 0.0050252783 -0.033927552
000110 90 ad 45 bc 0a 13 b1 ba f8 62 1c bd d0 ee 2f 3c
       -0.012065306 -0.0013509702 -0.03818032 0.01073809
000120 48 27 2f bd 45 12 18 bb a3 63 87 3c 3d 3d fc 3c
       -0.04276207 -0.002320425 0.016527003 0.03079092
000130 b7 bd b6 bc 00 c9 5f 3d 9c 47 4b bd 4a 55 bb bb
       -0.02230726 0.054635048 -0.04962884 -0.0057169544
000140 b7 87 05 3c b4 eb f0 bc 11 98 81 bc c3 01 5d ba
       0.008150033 -0.029409267 -0.015819581 -0.00084307435
000150 3b c7 7b bd 38 88 51 3b 02 8c 0a 3d e6 ef 0e bd
       -0.061469298 0.0031972062 0.033824928 -0.034896754
000160 60 96 cb bc ce 02 5f bc f7 34 4f bd b5 31 1e 3d
       -0.024851978 -0.0136115085 -0.05058762 0.038621623
000170 9a b5 f2 3c 76 48 81 3c ec 28 df bb 7d 85 b2 3d
       0.02962761 0.015781622 -0.006810298 0.08716867
000180 0a ec b7 bc 51 f2 05 bd a0 ca 0e 3d c4 b2 0c 3d
       -0.02245142 -0.032701794 0.034861207 0.03435017

6.weight f4 [2, 100]
000000 9a 0d 31 be 22 0d 43 be a4 da 2b bd b6 ba ae 3d
       -0.17290345 -0.19047979 -0.04195656 0.08531706
000010 1a 81 bc bd 5f 65 e3 3d 1e e3 56 be 9b 2e 95 3d
       -0.09204312 0.111033194 -0.20985076 0.0728428
000020 99 64 87 be 2d 6c b0 bd ab 49 93 3d 04 2c 43 be
       -0.26443937 -0.08614383 0.071917854 -0.1905976
000030 0d c7 0f 3c 39 44 9b 3d 73 e0 a1 bd 00 96 bc 3a
       0.008775485 0.07581372 -0.079041384 0.0014387965
000040 0b 70 45 be d7 47 c1 3d cc d0 35 be eb 74 52 3d
       -0.19281022 0.094375305 -0.17755431 0.051381033
000050 af aa 3a be f6 26 9b bd a0 c2 89 bd c7 8d 69 bb
       -0.18229173 -0.075757906 -0.06726575 -0.0035637484
000060 14 15 ce bc f5 78 5e be 15 46 13 39 21 c5 9f 3d
       -0.025156535 -0.21725829 0.0001404512 0.07801271
000070 0a 65 5b be 13 86 27 be ac 2f b7 3d ac 09 c1 3c
       -0.21425262 -0.16359739 0.089446396 0.023564182
000080 5a b7 4f b9 9c 70 9e bb a0 fa e7 3d 9d 61 7b 3d
       -0.00019809362 -0.0048352014 0.113271 0.06137239
000090 73 58 5e be 89 5a 91 3d cc cd 7c be 65 f4 88 bd
       -0.21713428 0.07097346 -0.2468788 -0.066872396
0000a0 30 09 aa 3d 36 7b 22 3b db 20 1d 3c d4 c5 3b be
       0.083025336 0.0024792678 0.009590353 -0.18337184
0000b0 12 bb 9f bb 60 2a 51 bd c2 fb 1e 3d 8f d9 dc 3c
       -0.0048745954 -0.051065803 0.038814314 0.026959209
0000c0 8c 3d 64 ba 20 a4 50 be 52 79 46 3d 82 2e fb bc
       -0.0008706681 -0.20375109 0.048455544 -0.030661825
0000d0 aa 74 07 3d b3 05 38 be 93 c7 0c 3b 87 de 5b be
       0.033070244 -0.17970924 0.002148126 -0.21471606
0000e0 43 a0 88 3d 92 ea 3d be 30 f4 5f bd 06 5c 46 be
       0.066711925 -0.18546513 -0.054676235 -0.19371042
0000f0 68 6c 14 3e fa e7 f5 ba 70 83 e9 3d d1 3c 73 3d
       0.14494479 -0.0018761151 0.11402023 0.05938417
000100 2e 80 04 3e 99 68 7a be 75 75 52 be 6c ef 12 bd
       0.12939522 -0.24453963 -0.20552619 -0.03587286
000110 50 7d 53 bd 7b b0 9f bd b5 32 6c be 6e 18 6a be
       -0.05163318 -0.07797333 -0.23066218 -0.22860882
000120 91 4e 88 3d 6f 0a 46 be a5 e4 70 be 71 b7 ef 3d
       0.0665561 -0.19339918 -0.23524721 0.117049105
000130 ee ed 16 3d ff 20 3c 3e 6a b7 6d 3d 64 af 6e be
       0.036848 0.18371962 0.058036245 -0.23309094
000140 1f 7c 57 be c7 0f bf 3d 94 0d 55 be ab 39 39 3d
       -0.21043442 0.09329181 -0.20805961 0.045221012
000150 cf 36 f7 bc ac db ae 3c a2 6f 1d 3e c9 55 4d 3c
       -0.030177502 0.021344982 0.15374616 0.01253266
000160 0d f0 b5 3d 28 2f 18 3c 9e 92 76 3d 0a 0f 32 be
       0.08883677 0.009288587 0.06019842 -0.1738855
000170 1f 17 42 3d 61 88 b9 3d d6 cb 71 3d 8a 13 06 3d
       0.04738533 0.09059215 0.059032284 0.032733478
000180 f7 45 9c 3d 5c b0 f6 3c 8c da 81 be 69 53 f9 3d
       0.07630532 0.030113392 -0.2536205 0.12174112
000190 39 2e 3a 3c 5b a7 93 bd 1d b6 48 bd be 1e b6 3d
       0.011363559 -0.07209655 -0.0490018 0.08892582
0001a0 07 b0 05 3d 3c 48 a5 3d 53 04 fd 3c 23 9a 14 3e
       0.032638576 0.08070418 0.030885851 0.14511923
0001b0 84 65 a5 bc 4a ce 74 3d 92 0b 19 3d 4f 6f 73 bc
       -0.020190008 0.059767045 0.03736455 -0.014858081
0001c0 04 d7 a7 bd 5a c9 28 bd 7e 64 80 be ca 03 82 3d
       -0.08195308 -0.04120765 -0.2507667 0.06348379
0001d0 45 88 8b bd 52 d4 4a 3e d6 c3 d4 3c d0 ba 1d be
       -0.06813101 0.19807556 0.025972288 -0.15403295
0001e0 7b eb a3 bd 00 32 8a b9 6a 1a 78 3d 49 c2 7f bd
       -0.08003899 -0.00026358664 0.060572065 -0.062441144
0001f0 9a 06 a0 bd 5b d5 ae bb 15 32 87 3d 80 90 00 3c
       -0.07813759 -0.0053354925 0.06601349 0.0078469515
000200 f8 e2 84 bd 12 48 14 3e f4 e9 25 3d aa a4 56 3c
       -0.06488603 0.14480618 0.04050632 0.013100782
000210 8f f6 c7 bd 57 11 87 3d 09 f7 69 bd d2 07 4d be
       -0.09763824 0.06595104 -0.057120357 -0.20022514
000220 1f 7f e2 3d eb af c3 bc 4a 1e ca 3b b3 06 e1 bc
       0.11059403 -0.023887595 0.0061681615 -0.027469015
000230 4d 06 80 3d d6 59 3c bd 7b 14 c7 bd a4 8c 9a 3d
       0.06251202 -0.04598411 -0.09720703 0.07546356
000240 d3 67 16 3d 13 08 70 bd e2 5d 42 3d 70 37 69 bc
       0.03672011 -0.05860145 0.047452815 -0.014234409
000250 9e 4d 3b 3d da 48 48 3d 59 ba 64 bc 08 46 a5 bd
       0.04572832 0.0488976 -0.013960444 -0.08069998
000260 1c ca 04 be 8b 64 80 bd a8 9e 0d bc ed 49 d9 3d
       -0.12967724 -0.06269177 -0.008643784 0.10609803
000270 25 e8 83 3d 22 e8 ee 3d d4 b7 7c 3d 6b f9 63 bd
       0.064407624 0.116653696 0.06169875 -0.055657785
000280 80 ff ee 3d 7a 27 61 bb 91 27 62 3e 77 c8 52 bd
       0.116698265 -0.0034355805 0.22085406 -0.05146071
000290 12 68 7a bd 6d 8e 4a bd 89 b7 f9 3c 92 55 82 bd
       -0.061134405 -0.049452234 0.030483024 -0.063639775
0002a0 0b d7 d0 3d e3 13 7f bd 23 78 11 bd f9 b2 b0 3d
       0.10197266 -0.062274825 -0.035514962 0.08627886
0002b0 e0 a0 95 3c b9 b1 d0 bc 8b f6 0b bd b5 66 3a 3e
       0.018265188 -0.02547537 -0.03417067 0.18203242
0002c0 24 c2 c4 3c 92 3a 1e bd 85 66 7b 3c 09 f0 17 bd
       0.024018355 -0.038630076 0.015344267 -0.03709415
0002d0 90 9e b7 3d 9e 23 e4 bc ae 87 3a bd 33 d3 b0 3c
       0.0896579 -0.027849015 -0.04553955 0.021585083
0002e0 be 85 f4 bc 66 45 f7 bd c0 f4 1f 3e 11 06 bb 3d
       -0.02984893 -0.120737836 0.15620708 0.091320165
0002f0 3c e7 8f 3d 6b 9e 3e bd 6c 4c 55 bd c5 49 9d bd
       0.07026526 -0.046537798 -0.052074835 -0.07680086
000300 7b d4 ba 3b 8c ba 6b bc 78 2c a1 3c 91 de 16 3e
       0.005701599 -0.014387738 0.019674525 0.1473334
000310 92 e7 10 3c a0 7c d0 bc 6e 2d e9 bb 8a d1 28 3e
       0.008844273 -0.02545005 -0.0071160113 0.16486183
