flappy_bird_dqn-main/my_model.ckpt (torch, 610767 bytes, 7 tensors)

0.weight f4 [200, 5]
-0.13347603 0.041123737 0.12735261 -0.12797017 -0.24551915 0.26293874 0.35885876 -0.3419997
-0.42830965 0.3312 -0.3886349 -0.44665855 0.09946877 -0.42579097 -0.1420305 0.2264675
-0.053536836 0.30944186 -0.084122196 -0.08308918 -0.37461746 -0.32520378 0.37720525 -0.060057443
-0.409504 0.086468875 -0.31524307 0.1904348 0.44839594 0.26069915 0.012931809 0.38760337
0.25075576 -0.0051865443 0.31617767 -0.1593979 0.06775123 -0.18017665 0.03668964 0.059500456
0.088077605 0.22170389 -0.44013503 0.05943972 -0.3146103 0.27508563 -0.18237865 0.45988983
-0.2416058 0.20953044 -0.26776668 0.07391219 -0.2759703 0.45414972 -0.14651534 -0.6362418
-0.23550062 -0.28973377 -0.140024 -0.09980313 -0.31616038 -0.071103446 -0.10808771 0.4267085
0.30588698 0.3095456 0.20147964 0.3616013 0.22250174 -0.2331143 -0.3688316 0.022423416
-0.41990718 0.03070879 0.14214885 -0.5302498 -0.020937135 -0.16794108 -0.41551965 0.013123152
-0.21012852 0.019439135 0.24013026 -0.12692079 0.32926178 0.38856253 -0.23012955 0.41990203
-0.35129008 0.14343601 0.3738507 -0.176568 0.009454608 -0.19394922 -0.36821616 0.07801737
-0.13826956 0.26894656 0.34579235 -0.014534578 0.09136721 0.388978 0.013148237 0.31802374
-0.45451817 0.44994652 0.16084974 -0.1414623 0.37217206 0.36806965 0.39478827 -0.19868682
0.0012304736 -0.31289285 0.028383821 -0.0017192066 0.23551321 0.07774085 -0.32496893 -0.3281905
-0.05700065 0.22810929 -0.31964013 0.095332704 0.08804511 0.5282363 -0.29023412 -0.17881532
-0.32380345 0.0044379174 -0.2889604 0.09402537 0.2914042 0.3069113 -0.17219126 0.21727201
-0.046073303 -0.41042945 0.38727233 0.25625125 0.2903461 -0.26035282 0.26058277 0.11820586
-0.12499965 -0.32439032 0.009399864 0.1212735 -0.18134521 0.47832078 0.34157515 -0.25384232
0.076873206 -0.14033888 -0.030077228 -0.22938927 0.12285311 0.29710627 0.05019312 0.22985364
-0.44807115 -0.37902176 -0.42811558 -0.07190281 0.10604312 -0.42158288 -0.05563402 -0.14903176
0.20003432 -0.1964036 0.14776284 -0.1339529 -0.056855798 -0.12730895 0.20712593 0.09031022
0.11863413 0.3916468 0.123717 -0.38919836 0.26377574 -0.29780242 0.42026085 0.024136288
-0.39534822 -0.1050244 -0.21737953 -0.17495808 -0.3343329 -0.34308884 0.061430693 -0.014802039
-0.1823619 -0.0547767 -0.4284458 -0.108871676 0.15418303 -0.058288947 -0.28354508 -0.3480508
-0.34081888 0.28620818 0.04631484 0.3506322 -0.1651972 0.38657755 0.16328675 0.11610469
0.18007702 0.46225736 -0.6264455 -0.38307863 0.017822677 -0.012287557 0.23732987 -0.22037832
0.25027913 -0.061092585 -0.35282767 -0.39902693 0.00803595 -0.023381269 0.03563121 0.37238687
-0.3699817 0.11168667 -0.3604671 -0.10387867 0.36784112 -0.412933 0.22560503 0.33871478
-0.046845302 0.23511766 -0.34835783 -0.33673567 0.33766973 0.14236662 0.36434138 0.23846006
-0.04541346 -0.44593275 0.35427308 0.42674425 -0.048041653 -0.2867473 -0.34230787 -0.33618274
0.15157276 -0.44312647 -0.06988849 0.0889907 0.2728598 0.32694376 0.2015948 -0.43146545
00000000: f1ad 08be 5d71 283d b968 023e 9d0a 03be
00000010: 5f69 7bbe e89f 863e 56bc b73e 961a afbe
00000020: 674b dbbe 0c93 a93e 27fb c6be 6eb0 e4be
00000030: 48b6 cb3d 4601 dabe 7270 11be 19e7 673e
00000040: 7149 5bbd 2a6f 9e3e 4248 acbd a92a aabd
00000050: dccd bfbe 1c81 a6be 0c21 c13e cbfe 75bd
00000060: 82aa d1be 9816 b13d 8a67 a1be 5701 433e
00000070: 2794 e53e 5c7a 853e f0df 533c f373 c63e
00000080: 0f63 803e e3f3 a9bb 0ae2 a13e 3439 23be
00000090: 28c1 8a3d 3a80 38be e047 163d c0b6 733d
000000a0: 0862 b43d 5806 633e 6159 e1be 1077 733d
000000b0: 9a14 a1be 06d8 8c3e 78c1 3abe ae76 eb3e
000000c0: 8367 77be 268f 563e b718 89be 465f 973d
000000d0: fb4b 8dbe 5086 e83e 1e08 16be bee0 22bf
000000e0: 1327 71be fc57 94be 7462 0fbe 9565 ccbd
000000f0: c6df a1be af9e 91bd 175d ddbd 8979 da3e
00000100: 389d 9c3e c37c 9e3e ae50 4e3e ce23 b93e
00000110: 7fd7 633e 84b5 6ebe 7fd7 bcbe 50b1 b73c
00000120: 13fe d6be 0091 fb3c 788f 113e 73be 07bf
00000130: 5b84 abbc bff8 2bbe febe d4be 7d02 573c
00000140: ee2b 57be d23e 9f3c b5e4 753e 86f7 01be
00000150: 0095 a83e abf1 c63e 15a7 6bbe 66fd d63e
00000160: 4bdc b3be e4e0 123e 5c69 bf3e 3ece 34be
00000170: 80e7 1a3c a09a 46be d486 bcbe 92c7 9f3d
00000180: 8996 0dbe 5db3 893e b20b b13e 7022 6ebc
00000190: bb1e bb3d 2028 c73e b46b 573c 02d4 a23e
000001a0: 9bb6 e8be 645f e63e cbb5 243e 7edb 10be
000001b0: 568d be3e a073 bc3e b021 ca3e 8f74 4bbe
000001c0: d847 a13a 7e33 a0be 3085 e83c 0057 e1ba
000001d0: 602a 713e 9836 9f3d 5462 a6be 9608 a8be
000001e0: 8379 69bd 7b95 693e dfa7 a3be cb3d c33d
000001f0: ff50 b43d 7f3a 073f 9199 94be 5d1b 37be
00000200: 91c9 a5be f36b 913b 9ef2 93be 6090 c03d
00000210: ee32 953e 7a23 9d3e e852 30be 8e7c 5e3e
00000220: 5cb7 3cbd cf23 d2be 8f48 c63e 5d33 833e
00000230: 3ea8 943e f74c 85be 1b6b 853e ea15 f23d
00000240: d1ff ffbd 7d16 a6be e301 1a3c 3e5e f83d
00000250: 8fb2 39be 76e6 f43e f0e2 ae3e 9ff7 81be
00000260: b36f 9d3d ffb4 0fbe 8564 f6bc 05e5 6abe
00000270: 699a fb3d 501e 983e 4d97 4d3d c15e 6b3e
00000280: 9569 e5be 240f c2be f731 dbbe c841 93bd
00000290: 232d d93d b6d9 d7be 80e0 63bd c89b 18be
000002a0: ccd5 4c3e 061e 49be 244f 173e f32a 09be
000002b0: a0e1 68bd 475d 02be d218 543e 91f4 b83d
000002c0: 73f6 f23d ee85 c83e 575f fd3d 0245 c7be
000002d0: 9d0d 873e 8f79 98be 6e2c d73e 77b9 c53c
000002e0: 156b cabe 0817 d7bd bd98 5ebe 3628 33be
000002f0: af2d abbe 57a9 afbe c09e 7b3d 4084 72bc
00000300: 14bd 3abe 885d 60bd 3f5d dbbe 1df8 debd
00000310: 28e2 1d3e 64c0 6ebd d22c 91be b733 b2be
00000320: d07f aebe e189 923e a1b4 3d3d 1086 b33e
00000330: 7429 29be 7eed c53e a434 273e 4cc8 ed3d
00000340: 1c66 383e ffac ec3e bb5e 20bf e222 c4be
00000350: dd00 923c c051 49bc 9a06 733e dbaa 61be
00000360: 9624 803e 383c 7abd d4a5 b4be 424d ccbe
00000370: 38a9 033c 138a bfbc 08f2 113d 7ea9 be3e
00000380: 3e6e bdbe fbbb e43d 258f b8be 57be d4bd
00000390: ac55 bc3e f46b d3be 0105 673e 066c ad3e
000003a0: dce0 3fbd afc2 703e f55b b2be 9e68 acbe
000003b0: 0ce3 ac3e 8ec8 113e f48a ba3e e02e 743e
000003c0: 7703 3abd 4c51 e4be 4863 b53e 397e da3e
000003d0: 53c7 44bd 8bd0 92be fa42 afbe 2520 acbe
000003e0: e435 1b3e 79e1 e2be b221 8fbd c240 b63d
000003f0: 48b4 8b3e 2c65 a73e de6e 4e3e 0ae9 dcbe

0.bias f4 [200]
0.40318564 0.12537791 -0.2770855 -0.075047754 -0.012830974 0.17467861 0.096444 -0.21950656
-0.08756694 -0.02347736 0.32028228 0.23014894 0.24200074 0.46755338 -0.275515 0.17362997
0.30846995 -0.30602837 -0.33043265 0.21754868 -0.18162434 -0.108415954 -0.39700824 -0.33993313
0.085353985 -0.14328563 -0.36552396 -0.07580891 -0.15111582 -0.12840751 0.18596226 0.24721208
0.19609495 -0.27782124 0.23569983 -0.26279396 0.11611208 0.031787187 -0.24223167 0.3887445
-0.080696784 0.2808393 -0.3106081 -0.34675595 0.2077725 0.018018128 -0.339424 -0.45604017
0.4019998 -0.25708622 -0.23899728 -0.2709151 0.27084413 0.29022738 -0.33726525 -0.0107550025
-0.004513544 -0.31898123 0.37026367 -0.031408373 -0.37795168 -0.27849776 0.44708666 0.18218227
0.26895705 -0.08091924 -0.015933564 -0.04959677 -0.11221921 0.32198858 0.26394126 0.33945948
-0.06889218 -0.38444895 -0.39892927 -0.046074882 -0.22697252 -0.21313766 0.27513865 0.23614573
-0.066155516 0.11285645 -0.01619881 0.349384 -0.1802939 -0.43889692 0.20764065 -0.0082547935
0.08017354 -0.46004838 0.019812314 -0.0019909807 -0.22779983 0.08982808 -0.32479063 0.064816676
0.15786982 -0.17173085 -0.09752122 -0.16047333 0.1568231 0.13834436 -0.28774577 -0.19862674
-0.045944866 -0.027016269 0.16170292 0.12674062 0.009371438 -0.4426189 -0.14404434 0.15673234
0.47012636 -0.09033089 0.31552285 0.28079724 -0.110110596 -0.37311235 -0.2142693 -0.3376027
0.40795356 -0.06628407 0.010990342 0.19767965 -0.01574652 0.13210826 -0.33654416 0.20187038
0.20529497 0.2893633 0.21814942 -0.454978 0.2269184 0.1606348 0.19060686 0.26040578
-0.06804274 -0.24746014 0.015264128 0.2546904 0.17104328 -0.08875252 -0.41080374 -0.18731923
0.2104773 -0.101119645 -0.051377792 0.24325259 -0.13821632 -0.22294311 0.04134507 0.2396087
-0.37221867 0.18866 0.28376314 0.08818288 -0.04721082 0.33363548 -0.3924021 0.023037419
0.011615345 0.23452985 -0.028792081 -0.12166532 -0.25824705 -0.12643415 0.34127396 0.050835222
-0.024539264 0.19649976 -0.43640095 0.2738792 -0.28408647 0.15039606 -0.42806792 0.13776855
-0.37867248 -0.0017284015 0.106940225 0.44585148 0.10023214 0.35369727 -0.43356735 0.03458223
0.32179534 0.06034993 -0.014181793 0.37901446 0.23276784 0.07811279 -0.27089638 -0.020717004
-0.44810078 -0.07866472 0.19817203 0.2908947 0.34601495 -0.28124517 -0.14841908 0.069780916
00000000: 596e ce3e 1163 003e 27de 8dbe a3b2 99bd
00000010: 0139 52bc f3de 323e 6f84 c53d 54c6 60be
00000020: 4c56 b3bd 9853 c0bc 0afc a33e 2aac 6b3e
00000030: 0bcf 773e 2863 ef3e 4d10 8dbe 0ecc 313e
00000040: c6ef 9d3e c0af 9cbe 782e a9be 15c5 5e3e
00000050: bbfb 39be 2f09 debd aa44 cbbe b70b aebe
00000060: 12ce ae3d 78b9 12be f525 bbbe b441 9bbd
00000070: 1bbe 1abe 427d 03be e46c 3e3e 2a25 7d3e
00000080: 1dcd 483e 963e 8ebe 4c5b 713e ee8c 86be
00000090: 2ccc ed3d 4833 023d 940b 78be 8509 c73e
000000a0: 5b44 a5bd 2bca 8f3e 0608 9fbe ff89 b1be
000000b0: 50c2 543e c19a 933c fcc8 adbe 197e e9be
000000c0: ebd2 cd3e cea0 83be b4bb 74be 62b5 8abe
000000d0: 15ac 8a3e af98 943e 08ae acbe c035 30bc
000000e0: 5ae6 93bb 8251 a3be 3393 bd3e 11a6 00bd
000000f0: e282 c1be 4297 8ebe 8be8 e43e fd8d 3a3e
00000100: bdb4 893e fdb8 a5bd 1b87 82bc fc25 4bbd
00000110: 2fd3 e5bd b0db a43e 4f23 873e a2cd ad3e
00000120: 5817 8dbd 7ed6 c4be 7540 ccbe 04b9 3cbd
00000130: 7c6b 68be c240 5abe f9de 8c3e 30d0 713e
00000140: 8b7c 87bd 4821 e73d 5eb3 84bc 76e2 b23e
00000150: f79e 38be 19b7 e0be c09f 543e 1d3f 07bc
00000160: 0632 a43d 768b ebbe 6f4d a23c 1d7b 02bb
00000170: 5c44 69be c9f7 b73d f54a a6be 9bbe 843d
00000180: a0a8 213e 36da 2fbe 35b9 c7bd 1f53 24be
00000190: 3c96 203e 25aa 0d3e 6a53 93be cf64 4bbe
000001a0: af30 3cbd 3951 ddbc 7395 253e 4bc8 013e
000001b0: a98a 193c f29e e2be 5c80 13be 717e 203e
000001c0: 67b4 f03e 67ff b8bd 368c a13e a8c4 8f3e
000001d0: aa81 e1bd 9508 bfbe 6969 5bbe 43da acbe
000001e0: 4adf d03e f1bf 87bd d610 343c 896c 4a3e
000001f0: d9fe 80bc 6347 073e 844f acbe 1cb7 4e3e
00000200: d838 523e 6d27 943e 9062 5f3e e0f2 e8be
00000210: 4c5d 683e 737d 243e 722e 433e e853 853e
00000220: fe59 8bbd 3166 7dbe 6516 7a3c c866 823e
00000230: f825 2f3e e2c3 b5bd de54 d2be 9dd0 3fbe
00000240: 5d87 573e d117 cfbd 8571 52bd 3517 793e
00000250: 9488 0dbe 334b 64be 7359 293d fc5b 753e
00000260: 7293 bebe 1630 413e 6749 913e 3a99 b43d
00000270: 2260 41bd 45d2 aa3e eee8 c8be f8b8 bc3c
00000280: 4a4e 3e3c 9828 703e 5fdd ebbc ab2b f9bd
00000290: f538 84be f477 01be 76bb ae3e 9838 503d
000002a0: 9106 c9bc 3c37 493e f26f dfbe e539 8c3e
000002b0: c873 91be 6d01 1a3e b82b dbbe 3313 0d3e
000002c0: 5ce1 c1be 888b e2ba 7a03 db3d a546 e43e
000002d0: 8246 cd3d cf17 b53e 8afc ddbe 19a6 0d3d
000002e0: 5cc2 a43e 7d31 773d c05a 68bc 2f0e c23e
000002f0: b15a 6e3e 99f9 9f3d eeb2 8abe b5b6 a9bc
00000300: 776d e5be f81a a1bd 9ced 4a3e 26f0 943e
00000310: df28 b13e 5eff 8fbe 2cfb 17be 4ce9 8e3d

2.weight f4 [500, 200]
0.0879254 0.0020010758 -0.038889892 0.022363516 -0.061577957 0.07623464 -0.0173723 -0.015373696
0.019881815 0.025470125 0.03187015 -0.08716279 0.042279907 -0.04381161 0.044440188 -0.075356275
0.06442409 -0.022532895 -0.023655958 0.026320262 -0.024977451 0.018484393 -0.045206826 -0.013339538
-0.027608722 0.09887809 0.060072966 0.117177874 -0.028718738 0.04154077 0.029095573 0.07923081
-0.10389541 0.0661538 0.012495688 -0.046156954 0.033666436 0.035598308 -0.033756625 0.002807983
-0.024240624 0.022062544 -0.10231599 0.05248197 0.052920938 -0.040746793 -0.15776221 -0.06862019
-0.006134274 0.05057156 0.076316446 -0.0028117 0.028221942 0.017100139 -0.04848361 0.02782648
0.039802656 0.04321021 0.028890867 -0.008970345 -0.16201168 -0.058752574 0.052549765 0.04588732
-0.0081646405 -0.03631928 -0.10931098 -0.029611744 0.08096454 0.06539895 0.006970256 -0.01095492
-0.0735216 -0.0075820144 -0.018194448 -0.010520803 0.0075611896 -0.009614456 0.08030781 -0.019046187
-0.03496774 0.003807627 -0.14574075 -0.0286871 -0.033402953 0.051842414 0.09135103 0.024074364
-0.1073014 0.062832944 0.0069294292 -0.02193377 -0.120702736 -0.063593805 -0.13899525 -0.10564097
-0.013421528 -0.04008034 -0.07092581 0.11292599 0.06810821 -0.020860955 0.026352596 -0.10566175
0.09714284 0.014081133 -0.051243804 -0.06405089 0.0346557 -0.011765469 -0.0800527 -0.00403718
0.042989954 -0.08277968 0.042973425 -0.113894016 -0.11296005 -0.00831458 0.0059854244 -0.08962663
0.04053193 -0.057177786 -0.017284576 -0.14027463 0.033840723 -0.0024734049 0.055422135 0.00086847343
-0.09992784 -0.044280488 -0.080499895 -0.09027872 0.018757273 -0.07192335 0.016292114 0.031734534
-0.09788411 0.033808768 -0.104929544 0.0007408838 0.08124271 -0.038160507 -0.051064305 0.089673035
0.028069485 0.063863166 -0.086721666 0.08795064 -0.007975034 -0.015340906 0.0006048447 -0.006494276
-0.060143784 0.081836276 -0.13611457 -0.010997125 0.04277934 0.0424327 -0.102419786 -0.020428034
0.007617226 0.047227636 -0.041749824 0.027708769 -0.0119212195 -0.017196521 -0.008686451 -0.011612882
0.017159754 0.10819882 -0.01659034 0.050020404 0.0155292675 -0.041274603 -0.04416047 0.110707134
0.061716415 0.012409219 -0.049644608 0.031620685 -0.012137014 -0.025677973 0.038711965 0.077823855
-0.038473763 -0.05799866 0.046978742 0.04406699 -0.0005004627 0.03914974 0.012375183 -0.03535026
0.056248534 0.06915394 -0.024561608 -0.025667906 -0.010995447 0.033344693 0.01045759 -0.048806705
0.052006923 0.006541425 0.039914504 0.008504189 0.038099915 0.041023225 0.03243804 -0.056252204
-0.0023539066 0.04621763 0.06859646 -0.1258331 0.036122277 0.10014987 0.014728531 -0.07893188
0.02138624 -0.029253893 -0.061554473 0.02821102 0.0036975972 0.009570341 -0.030104319 -0.005310908
0.022588203 0.18158273 0.065183364 0.09964483 0.02392051 0.02222891 -0.0510408 0.08147338
-0.1199121 -0.019774646 -0.02405516 0.006043878 0.0856228 0.02449859 0.028606929 -0.0024939987
0.10549317 -0.01891217 -0.13194358 0.021380812 0.07501638 0.0046981177 -0.08603014 0.084513105
-0.009044346 0.042176723 0.074873224 -0.061751854 0.022399819 0.022648493 -0.019243788 0.016594589
00000000: 3b12 b43d 7b24 033b 024b 1fbd b133 b73c
00000010: 2b39 7cbd e820 9c3d 5b50 8ebc f4e1 7bbc
00000020: 30df a23c b9a6 d03c 468a 023d 6882 b2bd
00000030: b22d 2d3d ce73 33bd ea06 363d 6454 9abd
00000040: c7f0 833d e896 b8bc 24ca c1bc 979d d73c
00000050: 839d ccbc 956c 973c cb2a 39bd 148e 5abc
00000060: b02b e2bc 9980 ca3d 120f 763d f4fa ef3d
00000070: 8f43 ebbc a826 2a3d d759 ee3c c343 a23d
00000080: 1ec7 d4bd a57b 873d b7ba 4c3c 130f 3dbd
00000090: d1e5 093d 88cf 113d 6344 0abd 2306 383b
000000a0: 4694 c6bc 82bc b43c 0c8b d1bd 56f7 563d
000000b0: a0c3 583d 1ce6 26bd 6b8c 21be be88 8cbd
000000c0: 0502 c9bb 2024 4f3d cc4b 9c3d 8044 38bb
000000d0: b431 e73c 9715 8c3c c096 46bd 5cf4 e33c
000000e0: 1c08 233d 30fd 303d 8aac ec3c 5bf8 12bc
000000f0: 64e6 25be 8aa6 70bd 6c3e 573d 58f4 3b3d
00000100: fcc4 05bc 86c3 14bd 6fde dfbd 5494 f2bc
00000110: bdd0 a53d e2ef 853d bf66 e43b 447c 33bc
00000120: 7e92 96bd 8c72 f8bb 860c 95bc 725f 2cbc
00000130: dbc3 f73b f485 1dbc 6c78 a43d c006 9cbc
00000140: 553a 0fbd 6189 793b 103d 15be 3601 ebbc
00000150: 89d1 08bd b658 543d 4016 bb3d 9a37 c53c
00000160: d6c0 dbbd 8fae 803d 4410 e33b 73ae b3bc
00000170: ff32 f7bd 783d 82bd c554 0ebe 4b5a d8bd
00000180: f8e5 5bbc 482b 24bd 8d41 91bd be45 e73d
00000190: 517c 8b3d 98e4 aabc 66e1 d73c 3065 d8bd
000001a0: d3f2 c63d 8db4 663c 06e5 51bd 1d2d 83bd
000001b0: 23f3 0d3d f4c3 40bc acf2 a3bd 524a 84bb
000001c0: 3c16 303d 6588 a9bd e704 303d 4441 e9bd
000001d0: 9957 e7bd e039 08bc 6121 c43b 2b8e b7bd
000001e0: cf04 263d 4133 6abd 6298 8dbc 27a4 0fbe
000001f0: 929c 0a3d d918 22bb 5202 633d 44aa 633a
00000200: f8a6 ccbd 755f 35bd 21dd a4bd 0de4 b8bd
00000210: daa8 993c 8d4c 93bd 0a77 853c 12fc 013d
00000220: 7777 c8bd 107b 0a3d 4de5 d6bd df37 423a
00000230: 9462 a63d 314e 1cbd ce28 51bd 7fa6 b73d
00000240: faf1 e53c b1ca 823d 219b b1bd 771f b43d
00000250: b8a9 02bc 6c58 7bbc 718e 1e3a f0cd d4bb
00000260: 5459 76bd c799 a73d 9e61 0bbe 492d 34bc
00000270: 6439 2f3d e9cd 2d3d 77c1 d1bd b158 a7bc
00000280: ec99 f93b c471 413d dd01 2bbd 80fd e23c
00000290: 3851 43bc b8df 8cbc 9e51 0ebc f543 3ebc
000002a0: 9d92 8c3c 5897 dd3d 77e8 87bc 32e2 4c3d
000002b0: 786e 7e3c 8f0f 29bd 9ce1 34bd 6cba e23d
000002c0: 5aca 7c3d 0950 4b3c 2558 4bbd b184 013d
000002d0: 54da 46bc 9d5a d2bc 7090 1e3d 1d62 9f3d
000002e0: aa96 1dbd 0190 6dbd c86c 403d 977f 343d
000002f0: 7c31 03ba 7a5b 203d 48c1 4a3c 6fcb 10bd
00000300: dd64 663d 95a0 8d3d 6d35 c9bc 8045 d2bc
00000310: 3f26 34bc 7294 083d 5056 2b3c 8ae9 47bd
00000320: 3605 553d 7359 d63b 647d 233d 2755 0b3c
00000330: a80e 1c3d f807 283d c0dd 043d b668 66bd
00000340: 0044 1abb b34e 3d3d 4d7c 8c3d 64da 00be
00000350: f4f4 133d 601b cd3d f04f 713c 0aa7 a1bd
00000360: 3232 af3c dca5 efbc 8b20 7cbd cc1a e73c
00000370: 6353 723b ebcc 1c3c 559d f6bc 2007 aebb
00000380: e50a b93c d3f0 393e db7e 853d 9712 cc3d
00000390: f2f4 c33c 6719 b63c 2810 51bd 84db a63d
000003a0: 7a94 f5bd 70fe a1bc 540f c5bc b90b c63b
000003b0: 025b af3d 44b1 c83c 1459 ea3c 5b72 23bb
000003c0: ce0c d83d b2ed 9abc 381c 07be d026 af3c
000003d0: 30a2 993d abf2 993b 9230 b0bd 3515 ad3d
000003e0: bd2e 14bc 80c1 2c3d 2257 993d 83ef 7cbd
000003f0: d37f b73c 5589 b93c 26a5 9dbc 60f1 873c

2.bias f4 [500]
0.080141045 0.0011862547 0.0006637327 0.023493141 -0.007822983 -0.018243503 -0.02320973 -0.042642534
0.10102212 -0.061774723 0.013897439 0.023090843 0.04695623 0.034896538 0.106784426 0.083653815
-0.0023878526 -0.027760262 -0.06303341 -0.00889966 0.03665117 -0.03632051 0.026311073 0.04606646
-0.019119594 -0.08298777 0.012484487 -0.027989917 0.001992743 0.0026069894 -0.018740892 0.039275445
-0.020282596 -0.0018279455 -0.046754666 -0.057921596 -0.010570342 -0.031495668 -0.021322738 0.04465855
0.041242808 0.09101739 0.04741207 -0.015175249 0.07000164 -0.01437849 0.050896417 -0.0031774682
0.053684495 -0.07905779 0.009594694 -0.05530264 0.093731344 -0.08159487 0.046457943 0.07196348
0.031402964 0.03580688 -0.039402317 -0.017356506 0.0679599 -0.04361786 -0.015981486 0.04110156
0.032778125 -0.013666085 -0.0024305247 0.073825605 -0.05531506 0.012709092 0.042922623 -0.062299337
-0.019994263 0.018487636 -0.00490779 0.04573505 0.09150793 -0.054016255 -0.08785617 0.018654317
0.008329566 0.087857746 0.04852107 -0.017415373 0.018635612 -0.07965424 -0.05676776 0.08582672
0.0051072426 0.043122344 0.053142317 0.024613487 0.08232414 -0.029469285 0.020426005 0.08947344
-0.012268267 -0.09980883 -0.01257263 0.10053058 -0.027444579 0.04987949 0.007390839 0.029539349
-0.046678875 0.023173979 0.03218633 -0.067209005 -0.023330761 -0.09494309 0.048299752 -0.03015761
0.045852974 0.028869143 0.0005888939 0.037455678 -0.015412915 0.034683675 0.06476874 0.028930401
0.047057167 0.09394385 -0.01348522 0.079158 0.049806625 -0.06670455 0.04836848 0.05102689
0.024349071 -0.05705342 -0.07122825 0.02801746 0.012203665 -0.060157172 -0.005223252 -0.0024355426
-0.004546702 -0.0149241425 -0.00029072663 -0.05744151 -0.0037623197 -0.016816763 0.10335341 -0.014369935
-0.08728181 0.077457294 -0.050059404 0.06665852 0.03522197 0.047775924 -0.045708254 -0.022954307
0.021699803 -0.07162038 -0.007753106 -0.06607431 -0.008050419 0.029109512 -0.00018717651 0.09292646
0.03942756 0.095879875 -0.075075895 0.032899532 0.07445727 0.0050062547 0.09396361 -0.0693025
0.0459555 0.04744998 0.016504664 -0.0048131943 0.08699302 0.039009076 0.02688632 0.062874176
0.007716217 0.05491957 0.0035585752 0.09504297 -0.016230121 0.0043388144 0.079366244 0.06826018
0.034552693 0.042838745 -0.04990596 -0.054590672 0.05104477 0.05994355 -0.06280362 0.063627906
0.046540372 -0.046805512 -0.02601411 0.024378778 -0.045971382 0.09615746 0.0064967126 -0.031357765
-0.043929636 0.044077426 -0.048061907 0.023441661 0.020967543 -0.032562096 -0.028565113 -0.07851483
-0.000953154 -0.04491488 0.015561554 0.005066696 -0.036873963 0.090951435 0.010061264 -0.023464756
0.0883496 -0.004493047 0.015112576 -0.031901926 0.05059778 0.037623163 -0.04180402 0.052289277
0.017828545 -0.04857285 0.07730099 0.014591883 0.03579132 -0.059898287 -0.044893477 -0.04170026
0.030155137 -0.051103707 0.041448373 -0.07376872 -0.080141045 -0.04034974 -0.012552262 0.06532629
-0.06968591 0.073138036 -0.067822054 -0.02580505 0.06024461 0.040065568 0.026509179 -0.03982916
-0.05867945 0.048379354 0.037412178 -0.06332627 -0.058916677 -0.06967076 -0.032155022 0.010139029
00000000: fd20 a43d 1a7c 9b3a 59fe 2d3a b074 c03c
00000010: f82b 00bc 6673 95bc 5522 bebc f0a9 2ebd
00000020: afe4 ce3d 7e07 7dbd 16b2 633c 0229 bd3c
00000030: 2d55 403d acef 0e3d cbb1 da3d b152 ab3d
00000040: 857d 1cbb 7d69 e3bc a917 81bd e1cf 11bc
00000050: 8a1f 163d d1c4 14bd 528a d73c 2fb0 3c3d
00000060: b2a0 9cbc 7ef5 a9bd bc8b 4c3c 1c4b e5bc
00000070: ae98 023b 06da 2a3b 8086 99bc 4adf 203d
00000080: b027 a6bc ac97 efba d281 3fbd 323f 6dbd
00000090: 3a2f 2dbc 9a01 01bd 06ad aebc e2eb 363d
000000a0: 38ee 283d 5367 ba3d 2933 423d 9ca1 78bc
000000b0: 055d 8f3d c293 6bbc c378 503d 123d 50bb
000000c0: 46e4 5b3d 0de9 a1bd 1033 1d3c 0585 62bd
000000d0: 38f6 bf3d 361b a7bd af4a 3e3d 9761 933d
000000e0: 65a0 003d 3caa 123d 5364 21bd 3b2f 8ebc
000000f0: 8f2e 8b3d a4a8 32bd 9beb 82bc 1c5a 283d
00000100: 5b42 063d b7e7 5fbc 7049 1fbb e131 973d
00000110: 0b92 62bd cc39 503c a2cf 2f3d 972d 7fbd
00000120: 02cb a3bc 6273 973c 87d1 a0bb ad54 3b3d
00000130: 8268 bb3d 2640 5dbd f0ed b3bd f0d0 983c
00000140: bb78 083c c3ee b33d 08be 463d afaa 8ebc
00000150: b6a9 983c c321 a3bd 5085 68bd ebc5 af3d
00000160: a85a a73b 0ea1 303d c2ab 593d 39a2 c93c
00000170: 8f99 a83d 9269 f1bc 7054 a73c da3d b73d
00000180: d700 49bc 9268 ccbd 6ffd 4dbc fae2 cd3d
00000190: 74d3 e0bc 704e 4c3d da2e f23b 81fc f13c
000001a0: 5932 3fbd 5bd7 bd3c d0d5 033d e0a4 89bd
000001b0: 2720 bfbc 8671 c2bd f6d5 453d 180d f7bc
000001c0: 54d0 3b3d fb7e ec3c 0060 1a3a 206b 193d
000001d0: 7386 7cbc 7810 0e3d 79a5 843d 73ff ec3c
000001e0: 04bf 403d a265 c03d 1df1 5cbc 971d a23d
000001f0: 0802 4c3d 659c 88bd 071e 463d 9201 513d
00000200: b477 c73c d9b0 69bd 1ee0 91bd df84 e53c
00000210: e2f1 473c 5e67 76bd d027 abbb a09d 1fbb
00000220: 80fc 94bb 6484 74bc ab6c 98b9 ca47 6bbd
00000230: 4091 76bb 4fc3 89bc f4aa d33d e06f 6bbc
00000240: cec0 b2bd eea1 9e3d 170b 4dbd 4384 883d
00000250: ea44 103d b0b0 433d 9438 3bbd ac0a bcbc
00000260: c9c3 b13c b5ad 92bd c40d febb f851 87bd
00000270: e8e5 03bc 1277 ee3c d044 44b9 3a50 be3d
00000280: cb7e 213d ab5c c43d 64c1 99bd a9c1 063d
00000290: 0e7d 983d 820b a43b fe6f c03d 78ee 8dbd
000002a0: d63b 3c3d e95a 423d ca34 873c 00b8 9dbb
000002b0: 6529 b23d fbc7 1f3d b340 dc3c 2dc4 803d
000002c0: 52d8 fc3b 58f3 603d fc36 693b e3a5 c23d
000002d0: 08f5 84bc 9d2c 8e3b c58a a23d fecb 8b3d
000002e0: 2087 0d3d ae77 2f3d 316a 4cbd 789a 5fbd
000002f0: 5214 513d 5e87 753d 2f9f 80bd 594f 823d
00000300: 1ea1 3e3d 23b7 3fbd 8b1b d5bc 01b6 c73c
00000310: 7d4c 3cbd 34ee c43d 60e2 d43b 0071 00bd
00000320: 90ef 33bd 888a 343d 90dc 44bd ba08 c03c
00000330: 20c4 ab3c d55f 05bd 6201 eabc 62cc a0bd
00000340: 15dd 79ba aaf8 37bd e3f5 7e3c 8706 a63b
00000350: 2709 17bd bf44 ba3d 00d8 243c 2939 c0bc
00000360: a3f0 b43d 693a 93bb bd9a 773c 98ab 02bd
00000370: 9e3f 4f3d bf1a 1a3d b13a 2bbd 482d 563d
00000380: 2b0d 923c 53f4 46bd fb4f 9e3d cb12 6f3c
00000390: eb99 123d e857 75bd 39e2 37bd e4cd 2abd
000003a0: e807 f73c 1f52 51bd c5c5 293d 0e14 97bd
000003b0: fd20 a4bd c545 25bd 01a8 4dbc cac9 853d
000003c0: 7db7 8ebd 65c9 953d 4ae6 8abd 1d65 d3bc
000003d0: 0dc3 763d cb1b 243d c729 d93c e723 23bd
000003e0: dd59 70bd 6e29 463d 833d 193d 34b1 81bd
000003f0: 9d52 71bd 8baf 8ebd fcb4 03bd 2b1e 263c

4.weight f4 [100, 500]
-0.09917867 -0.014085972 0.012219194 0.0015733391 0.024059694 0.0034019947 0.037387364 0.007451893
-0.090485044 0.036676418 0.11873908 -0.060353223 -0.04991218 -0.037213866 -0.1142644 0.038738057
0.08614148 -0.10133531 0.042433787 -0.017272007 0.021441922 -0.029894404 0.104659796 -0.038326915
-0.1127614 0.118108906 -0.02569258 0.040811356 0.0713537 0.022025537 -0.086749904 -0.078376055
-0.061522853 0.056405857 0.007122487 0.09063583 -0.06848177 0.032434773 -0.098709695 -0.05372709
0.0024962872 0.030892747 0.056595277 0.036415406 0.07010433 -0.039623573 -0.02326858 0.0870035
-0.077613555 0.041247927 0.038967136 0.03355568 -0.017691407 0.10566647 -0.011827916 -0.101627365
-0.029607873 -0.114362 -0.0034372485 0.0123110525 -0.09880889 0.020011079 -0.047553245 0.11642125
0.041607708 -0.09554935 0.027965156 -0.03753869 0.094482236 0.027309379 0.0051614568 0.101026
0.01282743 0.09404282 0.0012257397 0.042170692 -0.10585745 0.009821054 0.07056773 -0.030435905
-0.049878985 0.007121287 -0.036262594 0.095900804 0.03254658 0.07796282 0.027427156 -0.06142034
-0.06971487 0.006280213 -0.023473851 -0.058060758 -0.040085852 -0.026599795 -0.04973919 -0.058738228
0.004902773 0.07587257 0.11100588 -0.08862981 -0.016272133 -0.036035262 0.021003956 0.002315212
0.014274096 -0.043504704 0.041021742 0.07993181 0.07918283 0.10230635 0.04681978 -0.00036589126
0.021592844 -0.07129865 -0.014296731 0.08790527 0.021335497 -0.032536186 -0.024336522 -0.030560726
0.0065897186 -0.013959018 -0.017134417 -0.036947817 0.058909073 0.013325963 -0.0378029 -0.03897425
0.05991178 0.03612341 0.09225006 0.03630944 0.02354058 0.025185902 0.06586564 -0.0028063394
0.014484294 -0.029567303 -0.025704633 -0.02835905 -0.0074780323 -0.0147732375 -0.079359934 0.010858625
0.07782329 0.0019923323 0.0018246442 -0.014525577 0.004503593 -0.03700496 0.012131151 0.0381548
-0.027515547 0.06007641 -0.090132646 -0.0197342 0.011059195 -0.024235621 0.10438283 -0.022775855
-0.038280156 -0.064004175 0.033686068 -0.07910171 -0.059478607 0.08886368 0.03568795 0.012378026
-0.06419696 -0.02618665 -0.042221267 0.05742046 0.049788088 0.12070723 -0.065118045 -0.087889306
-0.05648201 -0.015499813 0.050707314 -0.0074728825 0.02735218 -0.035033345 -0.06759941 -0.104441434
0.0015858554 -0.083421834 0.040919904 0.023566034 0.0026780926 -0.028008731 0.050906684 -0.030316088
0.011249448 0.010534834 0.09904413 -0.053346552 0.039911542 -0.100310124 0.0064636515 0.017756522
-0.027289676 -0.004910767 0.018352058 0.13200179 -0.01999118 0.01252372 -0.0058824904 0.09139209
0.0781557 -0.043481827 0.059542812 -0.010241193 0.0017213217 0.049014248 0.03253861 0.035523083
-0.020140948 -0.054330934 -0.0015085228 -0.056449346 -0.019039271 0.115247875 0.048597388 0.05889503
-0.011889943 0.11465692 -0.09147833 0.025360355 -0.045759764 0.015435886 0.090885565 0.0063650697
0.1360493 0.10932834 -0.012508172 0.12527017 0.088866 0.04684958 0.017574655 -0.02562679
-0.009400083 0.061405633 -0.01425839 0.014713135 -0.03575835 -0.009454166 -0.019876255 -0.03442518
0.02549908 0.034828447 0.008769487 0.023462411 -0.02195649 0.11802399 0.047156025 0.09284855
00000000: 301e cbbd d9c8 66bc 0433 483c 8038 ce3a
00000010: d618 c53c 00f4 5e3b 7e23 193d 022f f43b
00000020: 3950 b9bd 033a 163d 7a2d f33d f134 77bd
00000030: b770 4cbd 916d 18bd 7403 eabd ccab 1e3d
00000040: f26a b03d e388 cfbd 0dcf 2d3d 067e 8dbc
00000050: f8a6 af3c 1ce5 f4bc e057 d63d affc 1cbd
00000060: 73ef e6bd 15e3 f13d 3f79 d2bc cf29 273d
00000070: e321 923d e66e b43c efa9 b1bd a083 a0bd
00000080: 63ff 7bbd d409 673d c063 e93b 479f b93d
00000090: 2c40 8cbd 53da 043d 4f28 cabd f010 5cbd
000000a0: c098 233b c912 fd3c 73d0 673d 5228 153d
000000b0: dc92 8f3d 544c 22bd c09d bebc e42e b23d
000000c0: dbf3 9ebd 96f3 283d 019c 1f3d ae71 093d
000000d0: 92ed 90bc aa67 d83d e0c9 41bc 0222 d0bd
000000e0: 368c f2bc a036 eabd 7643 61bb 4cb4 493c
000000f0: 515c cabd 46ee a33c 31c7 42bd 446e ee3d
00000100: d86c 2a3d 61af c3bd 2f17 e53c 2bc2 19bd
00000110: e77f c13d ebb7 df3c 7021 a93b b8e6 ce3d
00000120: 242a 523c 8699 c03d 00a9 a03a 2dbb 2c3d
00000130: cacb d8bd 7ce8 203c d085 903d b854 f9bc
00000140: e84d 4cbd af59 e93b 1688 14bd a467 c43d
00000150: 904f 053d f9aa 9f3d eaae e03c e593 7bbd
00000160: abc6 8ebd 3fca cd3b 3c4c c0bc 1ed1 6dbd
00000170: 1031 24bd d0e7 d9bc 52bb 4bbd 7f97 70bd
00000180: 71a7 a03b 1463 9b3d 0d57 e33d 8c83 b5bd
00000190: 234d 85bc b699 13bd 7d10 ac3c d0ba 173b
000001a0: e6dd 693c fd31 32bd 6a06 283d 4ab3 a33d
000001b0: 9c2a a23d fe85 d13d 19c6 3f3d 18d5 bfb9
000001c0: 7ae3 b03c 0705 92bd d63c 6abc ae07 b43d
000001d0: c8c7 ae3c aa44 05bd 635d c7bc 7d5a fabc
000001e0: 91ee d73b 5db4 64bc 7a5d 8cbc 9856 17bd
000001f0: a44a 713d 2455 5a3c 37d7 1abd 77a3 1fbd
00000200: 0e66 753d 24f6 133d 99ed bc3d 35b9 143d
00000210: 2dd8 c03c aa52 ce3c 91e4 863d 90ea 37bb
00000220: 884f 6d3c 2137 f2bc 8692 d2bc 3d51 e8bc
00000230: 480a f5bb 730b 72bc 7687 a2bd 60e8 313c
00000240: d161 9f3d ca91 023b e628 ef3a b0fc 6dbc
00000250: e092 933b 8392 17bd bcc1 463c 3548 1c3d
00000260: 4968 e1bc af12 763d 7797 b8bd 9ea9 a1bc
00000270: a031 353c c889 c6bc aac6 d53d 6e94 babc
00000280: a7cb 1cbd 9f14 83bd 67fa 093d 1400 a2bd
00000290: d79f 73bd 29fe b53d 872d 123d 34cd 4a3c
000002a0: b279 83bd 6385 d6bc 35f0 2cbd b731 6b3d
000002b0: 98ee 4b3d 5a35 f73d 9c5c 85bd 4fff b3bd
000002c0: ae59 67bd edf2 7dbc 79b2 4f3d 15df f4bb
000002d0: ae11 e03c 207f 0fbd 8f71 8abd 64e5 d5bd
000002e0: 7adc cf3a 11d9 aabd a19b 273d 8e0d c13c
000002f0: f082 2f3b 9172 e5bc 8783 503d 7259 f8bc
00000300: 9b4f 383c 4c9a 2c3c a6d7 ca3d ea81 5abd
00000310: 497a 233d 656f cdbd 0acd d33b 2076 913c
00000320: 998e dfbc 80ea a0bb 0e57 963c 7a2b 073e
00000330: 8bc4 a3bc 4a30 4d3c e8c1 c0bb c72b bb3d
00000340: 1810 a03d 001a 32bd 2ae3 733d adca 27bc
00000350: f99d e13a 2ac3 483d 3547 053d a780 113d
00000360: a1fe a4bc 1d8a 5ebd a0b9 c5ba 6e37 67bd
00000370: 3ff8 9bbc 1407 ec3d 0e0e 473d ea3b 713d
00000380: 09ce 42bc 3fd1 ea3d fe58 bbbd 85c0 cf3c
00000390: 976e 3bbd cce6 7c3c 3622 ba3d 1392 d03b
000003a0: 8250 0b3e 89e7 df3d 13ef 4cbc d346 003e
000003b0: 61ff b53d 58e5 3f3d b9f8 8f3c 46ef d1bc
000003c0: ce02 1abc 7984 7b3d 069c 69bc 5c0f 713c
000003d0: 5977 12bd a5e5 1abc 87d3 a2bc 6b01 0dbd
000003e0: 72e3 d03c 46a8 0e3d e5ad 0f3c 3e34 c03c
000003f0: 19de b3bc 90b6 f13d ad26 413d 6127 be3d

4.bias f4 [100]
-0.01702403 0.008373536 -0.00070631254 0.04367024 -0.025874559 0.0075476873 -0.050091576 -0.004791278
0.0019881048 -0.0116852 -0.030811526 0.05249909 -0.003206277 -0.0027445978 0.017954933 0.021658225
-0.0072659235 0.079653196 -0.055065688 0.0717803 0.040788885 0.039398655 -0.0024759015 0.023392014
0.034194607 0.011360851 0.034057457 0.060753617 -0.03375232 0.029571973 0.027543638 0.010495741
-0.013835104 -0.0010934472 0.04912474 -0.048065674 -0.032388937 0.010172719 0.025164012 -0.014622684
-0.019600004 -0.03900976 0.016102673 -0.00264616 -0.0023209366 -0.01432984 -0.038150348 -0.019612776
-0.053162638 0.034463666 0.0062197573 0.06932521 0.0040795165 -0.008860866 0.010230166 0.025231022
0.035324253 -0.0360647 0.019499984 0.08800376 -0.033965934 0.04048953 0.00890651 -0.033385526
0.014881283 -0.030236531 -0.009384543 -0.021504078 0.008294648 0.07648296 0.07090773 0.09840169
-0.05133299 -0.0037731582 0.013624763 0.019544808 -0.013781206 -0.0028762466 0.023001289 0.05743429
0.07728285 -0.039490122 0.033739045 -0.0008807798 -0.049643263 -0.01866208 0.033157755 0.03487052
0.06790989 0.03406065 0.00634329 -0.029886646 -0.0021461542 -0.034930144 0.016714973 0.05021103
0.026749091 0.022422226 -0.00034253916 -0.043690078
00000000: fb75 8bbc 2831 093c d527 39ba 91df 323d
00000010: e2f6 d3bc 9752 f73b d32c 4dbd 2700 9dbb
00000020: dd4a 023b 4873 3fbc 7468 fcbc 4909 573d
00000030: 6720 52bb b6de 33bb 3916 933c 976c b13c
00000040: fc16 eebb 3721 a33d 8f8c 61bd 8d01 933d
00000050: 3f12 273d 7c60 213d bc42 22bb 9ca0 bf3c
00000060: a50f 0c3d dd22 3a3c d57f 0b3d c9d8 783d
00000070: df3f 0abd ec40 f23c 32a3 e13c 54f6 2b3c
00000080: a2ac 62bc 0052 8fba 0637 493d 83e0 44bd
00000090: 43aa 04bd 7aab 263c c224 ce3c fb93 6fbc
000000a0: 3090 a0bc b3c8 1fbd c1e9 833c 336b 2dbb
000000b0: db1a 18bb b5c7 6abc 8a43 1cbd f9aa a0bc
000000c0: 11c1 59bd c629 0d3d 1bcf cb3b 60fa 8d3d
000000d0: 77ad 853b 2a2d 11bc 6d9c 273c 4ab1 ce3c
000000e0: 2ab0 103d 94b8 13bd 6ebe 9f3c 513b b43d
000000f0: dd1f 0bbd 59d8 253d 9cec 113c 43bf 08bd
00000100: a0d0 733c 9ab2 f7bc a0c1 19bc 5229 b0bc
00000110: 46e6 073c 19a3 9c3d 1238 913d d386 c93d
00000120: 8b42 52bd 1747 77bb 663a 5f3c 6f1c a03c
00000130: 91ca 61bc 697f 3cbb 336d bc3c 3840 6b3d
00000140: 7946 9e3d 65c0 21bd f431 0a3d 22e4 66ba
00000150: bc56 4bbd 38e1 98bc 6dd0 073d 64d4 0e3d
00000160: 5714 8b3d 2e83 0b3d 60db cf3b d7d4 f4bc
00000170: 7ea6 0cbb e912 0fbd d7ed 883c 15aa 4d3d
00000180: e920 db3c d1ae b73c d496 b3b9 5ef4 32bd

6.weight f4 [2, 100]
0.04704924 0.0201004 0.04781498 -0.014044296 0.0040594363 0.07860971 0.13674372 -0.0064246175
-0.07678076 0.10196179 -0.098316684 0.12994632 0.021250837 0.12168535 -0.014986201 0.14988269
-0.0062728566 0.07201585 0.15593538 0.095951155 0.17380811 0.046254497 0.15992159 0.077724464
0.15778315 0.0041433545 0.035532795 -0.006906724 0.020262815 0.011435761 -0.0010867089 0.06667237
0.089093424 0.042117976 0.14767332 -0.003339097 -0.07522583 -0.0056210486 0.1622028 0.13866335
0.025532024 0.06859904 0.11350579 0.03673881 -0.032032717 -0.013176538 0.03363467 0.06965979
-0.08330967 0.11808226 0.09742339 0.123370856 0.11857745 0.022895796 -0.079173096 -0.0698037
-0.037857722 -0.07469914 0.0481553 0.03799464 0.08868969 -0.018071853 0.065501444 0.009731874
0.09784564 -0.0045973063 0.11238344 0.08737915 -0.020757021 -0.04137254 0.085645184 -0.017390246
0.019680088 0.04343552 0.086225666 0.07098701 0.07799873 0.032249086 0.15311135 0.06647248
0.092629425 -0.055848587 0.028664194 -0.16259749 0.09619614 -0.0064497963 0.15493175 -0.023310144
0.06806092 0.004282322 -0.073227145 0.029868424 0.07053409 -0.051557947 -0.05790929 0.14378121
-0.09327777 0.052755546 0.0037222116 -0.081149235 -0.14038002 0.119116835 -0.13063501 0.115884386
0.037431758 0.060726307 -0.07087038 -0.03590004 0.012354952 -0.122010075 0.021892473 0.10832006
-0.18548058 -0.18027718 -0.11283246 -0.08732447 -0.08369262 0.11583558 -0.13336164 0.09777162
0.05272442 0.014044561 -0.13018616 0.12570104 0.061944816 0.07802951 -0.014715098 0.14166203
-0.053563427 -0.20075522 -0.18936035 -0.04299104 0.007512041 -0.09686887 0.1409181 -0.07871963
0.05842003 -0.19744815 0.029580439 0.06930528 -0.14069985 0.0074879397 0.027203085 -0.12063213
-0.14314665 0.007995156 -0.09922705 -0.017344698 0.028080307 0.11280895 0.0739738 0.13772835
-0.10999269 -0.16711795 0.0026893902 -0.04721309 -0.07268492 -0.021753669 0.058714274 0.096777216
-0.05796657 0.0010824949 0.10089489 -0.030758698 -0.10254521 0.010308771 0.050641876 -0.19603616
0.044788577 0.096824 0.09978384 0.063123375 -0.13391586 0.07697028 -0.13325843 0.024745574
-0.17721923 0.07926575 -0.18931048 0.07720593 0.11173965 -0.07448576 -0.06300103 0.109647274
0.084928 0.09142707 -0.17323326 -0.17767459 0.06878289 0.14366052 -0.028355978 -0.054300793
-0.15286084 0.053721666 0.021986503 0.10583001 0.06188384 0.0073674545 0.011377453 -0.08400957
00000000: b4b6 403d 98a9 a43c a4d9 433d 0c1a 66bc
00000010: 0505 853b 21fe a03d 8c06 0c3e 9985 d2bb
00000020: 3b3f 9dbd 58d1 d03d 425a c9bd a610 053e
00000030: 3c16 ae3c 2b36 f93d af88 75bc d97a 193e
00000040: 898c cdbb 0c7d 933d 86ad 1f3e 0a82 c43d
00000050: c1fa 313e 5b75 3d3d 7cc2 233e 012e 9f3d
00000060: e891 213e fac4 873b d68a 113d cd51 e2bb
00000070: 34fe a53c 0f5d 3b3c e66f 8eba 868b 883d
00000080: 9d76 b63d e683 2c3d ad37 173e c0d4 5abb
00000090: 0010 9abd c630 b8bb 7e18 263e c4fd 0d3e
000000a0: 8928 d13c a77d 8c3d b975 e83d 6f7b 163d
000000b0: bd34 03bd 68e2 57bc 82c4 093d cba9 8e3d
000000c0: 439e aabd 1dd5 f13d ea85 c73d dca9 fc3d
000000d0: bcd8 f23d f78f bb3c 8125 a2bd 3ef5 8ebd
000000e0: b310 1bbd ddfb 98bd 7e3e 453d 45a0 1b3d
000000f0: f1a2 b53d 6c0b 94bc 9f25 863d 7072 1f3c
00000100: 4b63 c83d 00a5 96bb 4a29 e63d d7f3 b23d
00000110: a10a aabc 4176 29bd be66 af3d fd75 8ebc
00000120: 2338 a13c 72e9 313d 1597 b03d a361 913d
00000130: ccbd 9f3d 9e17 043d 39c9 1c3e b922 883d
00000140: 7fb4 bd3d 7dc1 64bd 2cd1 ea3c f57f 26be
00000150: 7b02 c53d d058 d3bb 6ea6 1e3e eaf4 bebc
00000160: 8663 8b3d b852 8c3b 1df8 95bd a0ae f43c
00000170: 2d74 903d 6d2e 53bd 4b32 6dbd 623b 133e
00000180: 6a08 bfbd 3316 583d 59f0 733b 9231 a6bd
00000190: c8bf 0fbe 87f3 f33d 2fc5 05be cb54 ed3d
000001a0: 0b52 193d 26bc 783d 7d24 91bd ec0b 13bd
000001b0: 6d6c 4a3c 6be0 f9bd d857 b33c e8d6 dd3d
000001c0: 9fee 3dbe 959a 38be b414 e7bd 2cd7 b2bd
000001d0: 0967 abbd 343b ed3d f48f 08be 7d3c c83d
000001e0: 90f5 573d 291b 663c 854f 05be c6b7 003e
000001f0: d9b9 7d3d f0cd 9f3d 9817 71bc da0f 113e
00000200: 5365 5bbd c792 4dbe aee7 41be 5f17 30bd
00000210: 9127 f63b 3063 c6bd d64c 103e c237 a1bd
00000220: d749 6f3d d92f 4abe ad52 f23c edef 8d3d
00000230: 9f13 10be 645d f53b 01d9 de3c fa0d f7bd
00000240: 0995 12be 1dfe 023c 8d37 cbbd 7816 8ebc
00000250: ac08 e63c 6108 e73d 937f 973d a908 0d3e
00000260: d943 e1bd f820 2bbe 7b40 303b 8362 41bd
00000270: d5db 94bd c034 b2bc 617e 703d 2233 c63d
00000280: 5b6e 6dbd 80e2 8d3a fba1 ce3d aaf9 fbbc
00000290: 3903 d2bd 1fe6 283c db6d 4f3d b4bd 48be
000002a0: 3a74 373d a94b c63d 785b cc3d d446 813d
000002b0: 3d21 09be 98a2 9d3d e674 08be 3bb7 ca3c
000002c0: f578 35be 1556 a23d 9bda 41be 251e 9e3d
000002d0: c2d7 e43d fd8b 98bd af06 81bd c08e e03d
000002e0: bbee ad3d 1e3e bb3d 0f64 31be 54f0 35be
000002f0: 0bde 8c3d be1b 133e cc4a e8bc 826a 5ebd
00000300: 8d87 1cbe 400b 5c3d 0a1d b43c 67bd d83d
00000310: e979 7d3d b06a f13b 7f68 3a3c 360d acbd
